models/E16-S8-2/encoder.ckpt (torch, 211963 bytes, 14 tensors)

hydro_met_encoder.layers.0.0.weight f8 [32, 3, 9]
0.11216388917524564 0.03842627521042701 0.0685884951500304 0.10231741179065561 -0.08291463118989885 0.1641316043037611 0.033876503816847425 0.12011135026271524
0.05348741005867901 -0.018488529701952514 0.016625696470056715 -0.05396267440614923 0.04931766917541302 0.0075970476377184735 0.00939260491538948 -0.31617274564725506
0.01332872369662992 -0.0799876513220442 0.18709918492749442 0.06004094886782482 -0.09088134765992902 -0.11973162951273704 -0.00906878288409928 -0.05696675050556796
-0.0442037590525903 0.01836129388043136 0.14032520071748864 0.193283622004708 -0.27250138903766097 0.15340420746031228 0.12757351617404228 0.5672686877036975
0.2598909943251458 -0.20916213820915447 -0.282697427163879 -0.16294603746097144 0.0022958721864187502 -0.05953522217391917 0.13109703318911306 0.08804761352367631
0.1980834312459656 0.08441187114605235 0.09996686069431439 -0.027808469910914117 0.025050560746299664 0.0924185591598819 -0.11211131571593491 0.05833575561894634
-0.023793006383524645 0.04734682695973877 -0.09927289209771475 -0.03742992734043309 0.10901022149512918 -0.04729250290634001 0.30829287802512323 0.24820258120632024
0.025557217215471165 -0.07911247993796429 0.2719719360017979 0.2734287834527151 -0.033323751475348454 0.2579514948351626 0.20229034785068262 0.11894758660867226
-0.1523623926455771 -0.11579593459989196 -0.012605868520832194 0.07966022080512046 -0.053876306986887834 -0.13322223821397355 0.13080171170942584 -0.1439367088540169
0.1106766788962269 0.0002280098399473732 0.027593070327743087 0.016191394784768935 0.051152773179470916 0.07999202904402467 -0.18084275511637943 0.12320143242163986
-0.11061803555872245 -1.1296615763596372 -1.068083808725076 -1.1747727072118028 -1.0636383412656318 -1.3516150230200945 -1.3713036339053852 0.02741670000674902
-0.7948466572872698 -0.9960044285244877 0.037356652217448987 -0.09271301618166175 -0.30115822535813686 -0.3383438657103178 -0.18793693425649746 -0.14432619368623423
0.06469157685653888 -0.18296036088449757 -0.41019194066625453 -0.06868067692312275 0.170451655181247 -0.02115483094037991 0.11090828273486103 0.10193452029579221
-0.11426882021330334 -0.1316397969722882 0.19620979138331432 0.035685788484967895 0.12655399903444559 0.061428966746398805 0.07941271060747015 0.08966733199279012
0.1795046269089187 -0.11778392822135235 0.03841755042824209 0.0601116183336196 0.08443846954027559 -0.24261568049727095 -0.33133424373263215 -0.11965664559737144
-0.16338042819869286 -0.2516087288447627 0.1279418633170264 -0.09113952931348615 -0.032853779247909595 -0.12767296950383114 -0.2692257667946119 -0.125985903158696
0.06437597430119772 0.13154489870657965 -0.19029202021327718 0.005144323028233758 0.18346845060519684 0.14099395043587581 0.06478704652853366 0.0756207853396955
0.18146842300296345 0.11615922548145102 -0.032979974379734836 -0.10825035691722937 -0.04335414241782271 0.05130822043716131 -0.013351904907921633 0.17161850844963572
0.17559913137405744 -0.08801337813909084 0.0972220383802895 0.21631619635441898 0.3586001051497144 0.2120995404837064 0.07643888441092778 0.37245889008795696
0.023781432117819787 -0.05777719189796095 -0.11822821532213498 -0.09717298807009327 -0.09807054490220915 -0.12716471989957778 0.10971100298180332 -0.026648653187246362
-0.06264895429627092 0.11200735715451177 0.10323520095529201 0.15997385202656186 -0.14481332537249794 0.18024765846876298 0.015253382331940953 -0.06600056951573234
-0.1496133154280946 0.006864512308269016 -0.04135587892309572 0.07413523723786396 0.2370218344065188 0.22853195139049157 0.2810313622871936 0.3979116949692564
0.23294623712848458 0.10281576442880691 0.037452363422709814 0.27181739569323476 -0.010725096936410258 0.030741250348399717 -0.06294625476275016 0.02766976812972579
-0.10979543858069143 0.1561616567643982 -0.06652031536124706 -0.025366889988206263 0.045206341496909073 -0.12069589115211225 0.04272223415729698 0.06630478346239589
-0.14255575277531088 0.025797409418480636 0.014100791680994498 -0.27289090296942026 0.21287111505519435 0.2414237970988706 -0.056317532268852465 -0.060455678776087964
0.020822442368622244 -0.11272319512069648 -0.022410504100410848 -0.09256956382510718 -0.20745450100013937 -0.12050235564200365 -0.06467442436448063 -0.01672390740472365
0.0029721247719648957 0.049402458213751485 -0.005595605061393212 0.020487848437244334 -0.16053963995350845 0.07549207981317554 0.09981233933928216 0.11059085665555533
0.3072917620267018 -0.03495817809287054 0.19313989341959206 0.2231677008098584 -0.0721812903536826 0.22620161823779703 -0.02789501711260945 -0.024877321535734416
0.15228512428328303 0.14562707961801447 0.08356897072878225 0.08051976345569745 0.2798504826296911 0.15446095117998676 0.10154847566435789 -0.07822729390497764
0.09127083973910406 0.0992910087946016 -0.04194679316548243 0.06100650114441193 -0.14562293283783867 0.11617115069751602 0.13891410126135242 -0.11439419776855857
-0.13415449088136133 0.0023451899050994747 0.11881994372640126 -0.07638370272416777 -0.21283939352330336 -0.10854092964656263 -0.23021093700698464 -0.33504328670882777
-0.29310420958954736 0.16831984050735938 0.12041175888654752 -0.1298945095303033 0.06204659016442825 0.1105557353700254 0.03214164869085234 0.01636232035189288
00000000: dec2 cccb c5b6 bc3f 67f8 abd6 9bac a33f
00000010: c01d 8dff 038f b13f 63c5 7351 7931 ba3f
00000020: 690d 52ad e439 b5bf e2c1 5cb0 4302 c53f
00000030: 280b fed7 4258 a13f 38bb 4111 9ebf be3f
00000040: f747 e6a9 b362 ab3f 6c1d af39 a8ee 92bf
00000050: 99ce 729a 5306 913f 22e7 8ee3 fea0 abbf
00000060: 6f5a 7260 2a40 a93f d308 67f2 141e 7f3f
00000070: 2d9d 7c17 6e3c 833f 5241 9c9c 2c3c d4bf
00000080: 67dd fe02 174c 8b3f 7714 831a 127a b4bf
00000090: 9b98 2fb8 ddf2 c73f 5cc1 9def afbd ae3f
000000a0: 8d0b 0400 0044 b7bf 8dd2 0d69 bba6 bebf
000000b0: babe 366f a792 82bf fcf8 c2f4 be2a adbf
000000c0: 9c76 fb06 e0a1 a6bf b62f ea92 4dcd 923f
000000d0: 9f70 f119 2df6 c13f 366b ae89 84bd c83f
000000e0: 4201 82aa a970 d1bf 0530 0ec3 bfa2 c33f
000000f0: 86d0 e637 5454 c03f 556e b7a9 1027 e23f
00000100: e9b0 49d6 0da2 d03f 62ba 952f d3c5 cabf
00000110: ce42 15f3 b617 d2bf 4f2e f46e 6adb c4bf
00000120: 8a5b 9bfe cace 623f 42e7 6490 667b aebf
00000130: d92e 139f c9c7 c03f a135 93d4 498a b63f
00000140: 805a 8a41 cc5a c93f fb69 f731 049c b53f
00000150: 89a9 5d9d 6d97 b93f 1ed6 46d3 d279 9cbf
00000160: 4976 9bac daa6 993f 2498 2221 bea8 b73f
00000170: c8ef 82c2 53b3 bcbf e242 2425 2fde ad3f
00000180: 5bbc 29a1 315d 98bf dc0f b9e2 d73d a83f
00000190: ba63 f0c0 f269 b9bf e73b a3f3 032a a3bf
000001a0: f054 4008 18e8 bb3f 5f4d a812 b936 a8bf
000001b0: ab49 2d0d 12bb d33f d92e 8828 1ac5 cf3f
000001c0: b107 78d0 ab2b 9a3f bdfc 092a b740 b4bf
000001d0: 86ae a3fa fc67 d13f ffb9 ad70 db7f d13f
000001e0: ca86 888d cf0f a1bf 935d 91fc 4682 d03f
000001f0: b256 286e a6e4 c93f c320 6c5a 5973 be3f
00000200: d2ca c662 9c80 c3bf 3cc5 1d68 cda4 bdbf
00000210: abf6 4608 1bd1 89bf ff6e 26bb 9c64 b43f
00000220: d06c 13e1 ac95 abbf d64d 1d22 6d0d c1bf
00000230: 4ac2 0649 1cbe c03f 7166 9ca0 846c c2bf
00000240: 3808 4a8c 4e55 bc3f 7cf9 899c bde2 2d3f
00000250: ea93 9d9a 5b41 9c3f 7e0f 4f1c 7a94 903f
00000260: 17a2 cf3f b230 aa3f f64c af8c 5b7a b43f
00000270: e2c0 78fb da25 c7bf 8a40 120b 218a bf3f
00000280: eb8d 12ad 7651 bcbf fd32 6004 1813 f2bf
00000290: f8c7 3d0c df16 f1bf 4854 5b77 decb f2bf
000002a0: 081f 28a3 a904 f1bf 1e75 0a13 37a0 f5bf
000002b0: 4427 4814 dcf0 f5bf e4aa 9297 1f13 9c3f
000002c0: a147 cc41 626f e9bf 0de2 e5ad 44df efbf
000002d0: 0fbd 1f3f 6920 a33f eaeb 694c 0abc b7bf
000002e0: 046a 3526 2d46 d3bf 42cb 8107 6da7 d5bf
000002f0: dbcb 2b45 510e c8bf 3455 ebdc 4779 c2bf
00000300: e5ed ec8e a08f b03f 964c 3bbf 3e6b c7bf
00000310: 32a3 8fb2 9540 dabf 1180 408d 0e95 b1bf
00000320: 22b9 461e 5cd1 c53f 3355 2aac 9ca9 95bf
00000330: dca5 3337 7c64 bc3f 01fe 0077 6118 ba3f
00000340: b2c5 c4ad b840 bdbf 278d 6ca7 92d9 c0bf
00000350: 89ba 9206 671d c93f 7827 f35c 6845 a23f
00000360: 7af6 83e3 eb32 c03f 88dc 6716 9e73 af3f
00000370: ba1f f232 6454 b43f 42b9 6d32 70f4 b63f
00000380: 71f9 06f3 01fa c63f bb82 b467 1627 bebf
00000390: ca0b 5d15 77ab a33f d77e b435 f3c6 ae3f
000003a0: 8224 3371 c29d b53f a6c4 9dd6 070e cfbf
000003b0: 5d19 388b 9434 d5bf 58fb 9663 d1a1 bebf
000003c0: 0abe f55d a6e9 c4bf 56b0 717f 5b1a d0bf
000003d0: f832 5e23 6660 c03f aa35 c691 eb54 b7bf
000003e0: c6ec d6e6 35d2 a0bf 9513 4d7e 9657 c0bf
000003f0: 79e5 e7b5 fe3a d1bf 766c e95a 4e20 c0bf
00000400: 6b93 45a0 f17a b03f 0e40 f396 76d6 c03f
00000410: f0bd c029 7d5b c8bf 0443 a9b2 3612 753f
00000420: f63a 99e9 e47b c73f c428 07fb 160c c23f
00000430: 3363 0b46 e295 b03f 4f8c ee3f e25b b33f
00000440: 4ef7 0677 5b3a c73f 444f 926a 9cbc bd3f
00000450: ca8b c44e c0e2 a0bf 5665 bd9e 4bb6 bbbf
00000460: 394e a99f 8332 a6bf 5e4e 9631 1245 aa3f
00000470: 15c1 5957 3e58 8bbf 5ef9 9664 98f7 c53f
00000480: 1f92 3a47 087a c63f c1c6 b774 0b88 b6bf
00000490: 7e36 4b23 8be3 b83f e3fa 77c6 3fb0 cb3f
000004a0: aa73 fdda 4df3 d63f 0de4 efe6 1326 cb3f
000004b0: 6c0a b0ac 7f91 b33f 1e10 02d0 5dd6 d73f
000004c0: 7cd5 cae4 285a 983f 521b 50db f894 adbf
000004d0: 5ee4 454e 3444 bebf 5bce d035 54e0 b8bf
000004e0: aa4e 0eb7 261b b9bf 603b 96fc ee46 c0bf
000004f0: cd75 d131 0516 bc3f 13ca afd7 c849 9bbf
00000500: cfc1 d409 c309 b0bf 54d8 e39f 83ac bc3f
00000510: b622 e643 9f6d ba3f 37a9 55ef 057a c43f
00000520: 41fc 3f38 3e89 c2bf abe6 26f3 5a12 c73f
00000530: 7e0e 2752 2a3d 8f3f cb62 96cf 69e5 b0bf
00000540: 7ba7 6774 8726 c3bf 8640 df7d f61d 7c3f
00000550: 27ae f106 992c a5bf b7f6 6ae3 86fa b23f
00000560: ec61 9b41 bb56 ce3f b117 a8f4 8840 cd3f
00000570: f01f 8bf7 6afc d13f 46b0 259d 6277 d93f
00000580: 93b7 18ab 2ed1 cd3f b826 bc49 2252 ba3f
00000590: 8aec 1dc8 f42c a33f 1b20 3fca 7465 d13f
000005a0: d8dc b424 0af7 85bf 06c1 8963 a27a 9f3f
000005b0: 1f98 9ce9 3e1d b0bf 46ff d1b4 7655 9c3f
000005c0: 623c f4c9 8d1b bcbf 389c 58ec 1afd c33f
000005d0: 8204 ffb2 7907 b1bf 8630 9a2b c7f9 99bf
000005e0: e320 9a1c 4925 a73f ab88 4209 ede5 bebf
000005f0: b808 094d b0df a53f f912 8aac 59f9 b03f
00000600: 5568 0354 443f c2bf 6178 18d7 a26a 9a3f
00000610: e8cd f038 e0e0 8c3f dd4a e867 0b77 d1bf
00000620: 1a6a b656 5c3f cb3f 5f05 8298 f9e6 ce3f
00000630: bb81 92ce a6d5 acbf 85cc 66f6 0bf4 aebf
00000640: b1fb fb73 7a52 953f c644 8b64 6ddb bcbf
00000650: d1e4 ca78 c7f2 96bf a1db 3b91 a3b2 b7bf
00000660: 7f0f 9a7c de8d cabf 2ac8 920c 3ed9 bebf
00000670: 4577 88c9 808e b0bf 075f 756d 1220 91bf
00000680: 733f 3f56 ff58 683f b679 bd6c 474b a93f
00000690: ee1a d7cb 6aeb 76bf 3273 033c c4fa 943f
000006a0: 72ed a71b 908c c4bf 9294 e7ed 7253 b33f
000006b0: 8a10 332d 4d8d b93f ef7d 92b0 ae4f bc3f
000006c0: 9508 0f11 abaa d33f 66f3 45cf 09e6 a1bf
000006d0: 2121 e5da ceb8 c83f c53c 405c c290 cc3f
000006e0: e9bf 7319 797a b2bf 4f1a 51b4 2cf4 cc3f
000006f0: 624c e1e8 8290 9cbf 62d9 a1c9 7079 99bf
00000700: 3964 3b36 147e c33f bc88 2f7c e8a3 c23f
00000710: 7a91 3dac c664 b53f f84f b976 f19c b43f
00000720: 8984 aaff 11e9 d13f 46de e95e 60c5 c33f
00000730: c1e3 efb5 14ff b93f 39f9 f934 b406 b4bf
00000740: 5506 c297 865d b73f 0746 8fb3 226b b93f
00000750: beb9 a2d1 0c7a a5bf ea6b 847e 3e3c af3f
00000760: 0806 0bb3 c5a3 c2bf 6e09 fc7c 64bd bd3f
00000770: 7174 eff0 efc7 c13f 33a3 442a f048 bdbf
00000780: 8c36 796f f92b c1bf 16fe 3f3e 3836 633f
00000790: 40de 6adc fb6a be3f cbce 25e1 e18d b3bf
000007a0: fbd4 3d3d 523e cbbf 2b03 1c9f 56c9 bbbf
000007b0: a631 d04e 8d77 cdbf 3c29 ca65 5971 d5bf
000007c0: 4573 a028 38c2 d2bf 289f 1f29 818b c53f
000007d0: 17b8 7816 4ed3 be3f 1a6a 2e1f 62a0 c0bf
000007e0: 1e48 2b17 92c4 af3f 59ab cc73 614d bc3f
000007f0: 80f7 eec3 de74 a03f 5d35 31bb 48c1 903f

hydro_met_encoder.layers.0.0.bias f8 [32]
-0.1607977903394669 0.0399043546776655 -0.07759070050892755 -0.11274152080015801 -0.03921415530852924 0.036434261339034275 -0.26356208243270607 -0.06011147294913321
-0.055373280644087176 0.04049267793636059 -0.10761648102848301 -0.12845395896409814 0.0637199807277441 -0.02650466440536947 -0.19522695549105523 -0.16045584263335444
-0.1583806610160043 -0.1841609629528013 0.05391378270957095 0.18996309398654404 0.16418834099386356 -0.14624179668946077 0.010978978913446683 0.040117729203982544
0.1494886707688727 0.09605444416098241 0.08790397948798712 0.05742436691269618 0.06686435482141849 0.05648590092804886 -0.08992696872185338 0.017648246959487895
00000000: 3277 63a1 0595 c4bf 4ffb 9df4 576e a43f
00000010: ded9 28f1 fbdc b3bf 6aec bcd8 a0dc bcbf
00000020: a148 2eb5 e013 a4bf 4165 cff1 82a7 a23f
00000030: 7ce7 207f 33de d0bf ffa0 dc54 eec6 aebf
00000040: 1d8e e0fa e259 acbf 62a2 edce 74bb a43f
00000050: 0227 87f2 c08c bbbf 8b71 65e8 2d71 c0bf
00000060: 38d1 53e1 f34f b03f 8004 40eb 0924 9bbf
00000070: 86dc 9066 32fd c8bf 10fc 472a d189 c4bf
00000080: 0ef9 b047 d145 c4bf dd83 8a20 9692 c7bf
00000090: b41f 155b 969a ab3f 5241 0fee b550 c83f
000000a0: 7f00 7aa1 1f04 c53f 3b75 0b1b 0db8 c2bf
000000b0: 8289 039b 257c 863f c87e d79d 4f8a a43f
000000c0: af93 09dc 7122 c33f 888f 4e28 0697 b83f
000000d0: 28d3 160d e080 b63f a55e c403 ba66 ad3f
000000e0: cfe3 39b9 051e b13f f395 5752 b8eb ac3f
000000f0: 9253 b02d 7405 b7bf 0b47 17ce 6112 923f

hydro_met_encoder.layers.1.0.weight f8 [32, 32, 9]
-0.014264301098536183 0.06831877787774093 0.026455604890971162 0.011193714376247905 -0.015158836743943766 -0.02641415061552737 -0.010131195005855225 -0.010183993971430792
0.10118898777852545 -0.13374367084350108 -0.06978002763747682 -0.09256637739017486 -0.1155527228060149 -0.03382079002645143 -0.09482876876141325 -0.08559725642081584
-0.05218535120936639 0.02385514377817795 -0.00436610204085565 0.009628699622401872 0.0392992305744222 0.0014560816551894644 -0.043249374440469515 -0.05153289041205654
-0.034636254895211285 0.009066167757979705 -0.06789082163095211 -0.11325454646894349 -0.16999619724593398 -0.21120836075928473 -0.13679783264587503 -0.17079678135433934
-0.17778945645055577 -0.11146082907566841 -0.023088353519432215 -0.14357531075285895 -0.004813094753633462 0.0685873489214959 -0.02292342333199154 0.059928815943147154
0.04450966424905817 0.014682064450374966 -0.010193660328441392 0.0233804502583906 -0.03094834624861972 0.023688022499348708 -0.001632607649744988 -0.009013450741162568
0.04876260012806173 0.014173141630532071 0.002628005395254027 0.06038028742014438 0.02641891482262811 0.02315348841490862 0.18011689295351452 0.117735466385089
0.1689789390130792 0.17995381733717805 0.12245943934309808 0.16487650783873287 0.21924325563681765 0.2101291295411314 0.14174558766436496 -0.02222135880257168
-0.001965142579490231 -0.06034766936238895 -0.0714190363559805 -0.06855523711228392 0.041814839972789994 0.06623770103340261 0.059959953814868655 0.025594034735584446
0.028018789449195725 -0.019241778720155808 0.02471684307141073 -0.014163416679189288 -0.044155967307731914 -0.018265954197240378 0.0014251606273253687 -0.018232724386382716
0.05544528166928304 -0.02035201345524883 0.04126800689669184 0.053256960315095005 -0.029321987986239594 -0.005817913453382919 0.026341916279935908 0.07215984376840448
0.007177721881501308 0.03159174630692369 -0.019002536905367236 0.05247620181022756 -0.04231789183280005 -0.062050956183582445 0.019105626305493166 0.06861803569005101
0.06959065292683246 -0.04411139892780409 -0.03976165283401259 0.07312946840612962 0.045426781538929345 -0.02953119393076122 0.01115962971274332 0.07842942329982489
0.01225488552543815 -0.011608709878094758 0.03236896150283559 0.08438967512148546 -0.36142050562503436 -0.5252395265262119 -0.6963683678254498 -0.7414167349225301
-0.8480028369018195 -0.6647490118124587 -0.30697012794153067 -0.3009623421580902 -0.22164478926336595 -0.019300604534984167 -0.02731210712272107 -0.03525060630167797
0.010759648036367664 -0.0568632581919969 0.002615374054760275 -0.07411863412483886 -0.07169185954325315 0.008070392284493582 0.0052948300216989945 -0.04214458438716876
0.04852709417351618 0.009206579178177686 -0.02688226483456457 -0.09373438742582216 -0.06586573212334858 0.01093707937379559 -0.03615290034363634 -0.02191228657226588
0.057012114611919615 0.05790224855455374 0.02289670899109261 -0.017064020974114438 -0.07374069803729197 0.01902391439743808 -0.017458178587217023 0.051217543772277586
0.007218564079603107 0.06718520111516874 -0.0010359486418438496 0.11576803753220247 0.10745058096349223 0.07468382584474069 0.06815166267278615 0.031064170050175394
0.033542565129546446 0.04520060831013087 0.03765282225593472 -0.009195712930717807 0.1082240575217739 0.044438384924521 0.08823086252840609 0.08633834079664462
0.11508664540761289 0.05343755174324366 -0.10793279245961995 -0.004314345774199059 -0.016960256824487156 0.0036725100940709723 -0.06525422951160392 -0.030559343914581084
-0.07920041616718264 -0.021514106730424053 0.0251293123510879 -0.1434523087952224 -0.13481214487155638 -0.09668359237888212 -0.07318987024774354 -0.06459722882991455
-0.141099185157393 -0.07875228408232053 -0.11499740745774413 -0.05152742824778088 0.035002565347936235 0.08832382561436473 0.023115056819902433 0.022509256887881725
0.11031254628807013 0.077367548453041 0.12472474057127302 0.11238238485434968 0.1333031629563772 0.03419027740992062 -0.01314583375911176 -0.043579208362785254
-0.03304034482843927 0.07543234040227964 0.06770709962381247 0.07250872239856229 -0.004512206035360201 -0.011585321776794761 0.06842898933473922 0.018099271831159593
-0.03769626155304534 0.011507979838846083 0.014887463158203327 0.022041030521541917 0.04462425136163133 0.05913614958267688 -0.0009215807194475163 -0.003481792652766847
0.005917498010397875 0.07966227904282264 0.06197380364751709 0.04392024234509831 0.04085128271656725 -0.00037285052769247536 -0.04317596206159776 0.06536736418711775
0.03310151280600654 0.11036101558836142 0.06013104756787386 0.10117909855124697 -0.014248284501375129 -0.04871044162970455 0.09635206717162666 0.19168517134058952
0.2935101712339592 -0.008044268427193078 0.013918932139938375 -0.03963886177187664 -0.09518309562081334 -0.07250620693632227 -0.05036040962288531 0.019839116748876943
-0.1109453439678126 -0.01934624548744614 0.020472003763107066 0.017198293363358298 -0.07987707868546261 -0.01692587822908029 -0.08021226649549326 -0.04901524165862005
0.042013627400363254 0.007017165129779203 -0.021194650163920234 0.05521390430523424 -0.04511783742521473 0.0656165630874281 0.06257809542884135 0.016731731707032495
0.03440899587998854 0.018574245285267528 -0.0020834146308974883 0.0010217094825937143 -0.11024007774705129 -0.1242314053711543 -0.09955435607073224 -0.06253242973734692
00000000: 0e82 bf15 9a36 8dbf 9c05 b0e4 567d b13f
00000010: b3e1 3597 2d17 9b3f ea80 55e9 baec 863f
00000020: aa31 7ca0 980b 8fbf 4e65 2ea4 4f0c 9bbf
00000030: b6a1 c1f9 a9bf 84bf 8c4f 6688 58db 84bf
00000040: 4e5f 3981 85e7 b93f 0ef0 283a 831e c1bf
00000050: b8ef 9d98 1add b1bf 4399 991b 6eb2 b7bf
00000060: ef63 6afd dc94 bdbf ce4e 2d66 f550 a1bf
00000070: fada 8cbc b246 b8bf 3069 f4a8 b3e9 b5bf
00000080: 9e8b 8cd1 09b8 aabf f57f 7999 7b6d 983f
00000090: 11a3 9f97 30e2 71bf c18b d92f 36b8 833f
000000a0: 6174 265c 071f a43f 26d1 b7c5 3fdb 573f
000000b0: 32ab 9631 c824 a6bf ceec f9dd 8462 aabf
000000c0: e2cb 0fdc d7bb a1bf e721 2a70 4891 823f
000000d0: 8c7f 9afa 4a61 b1bf c719 35fd 3ffe bcbf
000000e0: adcd ce75 6fc2 c5bf c02b 0d25 e008 cbbf
000000f0: f258 b064 9782 c1bf d6e7 163f abdc c5bf
00000100: 30ae 830e cec1 c6bf 2d40 aa67 b288 bcbf
00000110: 4d46 232d 79a4 97bf 1629 1900 ad60 c2bf
00000120: 8c52 f348 e5b6 73bf b283 89c4 f08e b13f
00000130: 4fd3 17e6 3c79 97bf 12ad 2061 fdae ae3f
00000140: 887d 9c80 f8c9 a63f 278d 3755 a111 8e3f
00000150: 08c3 e5ed 69e0 84bf 95f4 e674 0bf1 973f
00000160: 372e 035c ecb0 9fbf b136 c447 ac41 983f
00000170: ff66 9f1d a7bf 5abf 085b 42e1 a475 82bf
00000180: 6aca a259 69f7 a83f c016 47de ce06 8d3f
00000190: 6113 3ea7 5387 653f b6cf 953f 2aea ae3f
000001a0: 35d0 a25c 8f0d 9b3f 6413 1f4e 8cb5 973f
000001b0: 1ca3 5802 120e c73f 2609 b459 e923 be3f
000001c0: ea10 6314 1aa1 c53f eb73 2008 ba08 c73f
000001d0: 86aa 1077 8059 bf3f d0e4 8564 ac1a c53f
000001e0: d312 6aba 2910 cc3f 3076 a8e5 82e5 ca3f
000001f0: b074 af2b b824 c23f faa3 5125 32c1 96bf
00000200: 3364 8ce3 3319 60bf 9941 9ac4 e3e5 aebf
00000210: 1bf5 7599 8448 b2bf 9ee5 5d05 d68c b1bf
00000220: be59 5734 c168 a53f 6560 b337 f4f4 b03f
00000230: 54b8 6831 12b3 ae3f 69e9 a598 5235 9a3f
00000240: 9064 6e21 f5b0 9c3f cf9d 47e9 1db4 93bf
00000250: 19b9 9b42 5f4f 993f f970 7e9b b501 8dbf
00000260: a818 0567 9c9b a6bf 9428 a16f 4fb4 92bf
00000270: 8856 4c92 8e59 573f 8a73 d36b 99ab 92bf
00000280: 6962 f9ee 5263 ac3f 7dcc ca80 28d7 94bf
00000290: 0e1b fc87 1421 a53f 65e7 ac0d 7f44 ab3f
000002a0: b383 d14d 9506 9ebf 1c39 3640 86d4 77bf
000002b0: 0ac4 be13 60f9 9a3f 3adc 1149 1179 b23f
000002c0: 5972 da0b 6366 7d3f 996c 6c1a cb2c a03f
000002d0: 7fc6 32aa 6675 93bf f9ba 2f25 29de aa3f
000002e0: e842 ead2 b0aa a5bf 9cef fc96 24c5 afbf
000002f0: be54 9be0 6c90 933f 125c 349b f390 b13f
00000300: 8393 6d6a b1d0 b13f 392c 8def c495 a6bf
00000310: c42d 1dad a35b a4bf fd9d 2de3 9cb8 b23f
00000320: 64fc 24da 2d42 a73f 85eb 93e0 6c3d 9ebf
00000330: c4af 3625 dcda 863f 64ec 1d60 f313 b43f
00000340: ab43 62e4 1619 893f e08b 33aa 4ec6 87bf
00000350: 89cd 1e1e aa92 a03f f24f c4ce 8f9a b53f
00000360: 04da f078 8321 d7bf 2fe4 9f1f c3ce e0bf
00000370: 40ef b850 a648 e6bf 3961 a696 afb9 e7bf
00000380: bc12 6dd8 d622 ebbf ed0c 39b8 9f45 e5bf
00000390: 5ce6 1609 66a5 d3bf 3b61 398e f742 d3bf
000003a0: 1884 9b40 db5e ccbf 0049 15a5 89c3 93bf
000003b0: 6cfb 817b b4f7 9bbf 9fb2 7512 5e0c a2bf
000003c0: 8d1b 7683 2709 863f b1a8 8e54 2e1d adbf
000003d0: ad29 0641 d66c 653f a722 9755 70f9 b2bf
000003e0: cdb0 20d0 655a b2bf 831d 6cb7 3587 803f
000003f0: b549 7f1c 08b0 753f 35f5 4a97 f993 a5bf
00000400: 8eec e314 8bd8 a83f ff92 d323 e6da 823f
00000410: ff3a 3a41 0687 9bbf e626 8110 fafe b7bf
00000420: d999 659d 93dc b0bf ae2d cbf1 2d66 863f
00000430: 6a4f 4309 a282 a2bf 0977 d5a8 2c70 96bf
00000440: a6ce 771f b130 ad3f 4237 d00f 5da5 ad3f
00000450: d709 3621 3c72 973f 079c 1610 3b79 91bf
00000460: 4652 749e abe0 b2bf 9631 b748 017b 933f
00000470: 8abd 5188 8ee0 91bf ad7d f796 2f39 aa3f
00000480: 9aea 558a 3691 7d3f dc98 90a1 0c33 b13f
00000490: bb1b 5f62 15f9 50bf 0a77 1f5f f9a2 bd3f
000004a0: 6fa5 2c9b e181 bb3f 1317 8bad 7a1e b33f
000004b0: f7fe 582a 6372 b13f e883 c529 49cf 9f3f
000004c0: 7fbd 82b8 7d2c a13f 2413 e7bc 8824 a73f
000004d0: 64f7 6110 3b47 a33f 621d 68b2 33d5 82bf
000004e0: 014a b263 92b4 bb3f 6e31 e0c3 a0c0 a63f
000004f0: 32b0 0e3d 4c96 b63f 3acc 1cfe 441a b63f
00000500: 5d67 3b82 5176 bd3f f827 3bb2 2a5c ab3f
00000510: 98af c7c5 7ba1 bbbf 5ba6 0f60 ebab 71bf
00000520: 115d 9291 075e 91bf d5c8 f1d7 cf15 6e3f
00000530: 8492 ad4d 80b4 b0bf 8d26 cdda f24a 9fbf
00000540: ff83 447d 7a46 b4bf b642 3d43 cb07 96bf
00000550: 1125 e09a 7fbb 993f 87d4 672f a55c c2bf
00000560: 75d9 a93c 8641 c1bf 67bc 5383 41c0 b8bf
00000570: 8ccf 1c43 92bc b2bf 1d99 3ca9 7189 b0bf
00000580: de22 dfc0 890f c2bf 236e 9e14 1c29 b4bf
00000590: 59e2 2758 7870 bdbf 3ea8 5796 cd61 aabf
000005a0: 2217 e432 dbeb a13f 5ba7 78e6 639c b63f
000005b0: 1cbe 5834 79ab 973f ba4a c3a8 aa0c 973f
000005c0: b44f a56a 713d bc3f 44a4 6012 5cce b33f
000005d0: af75 c1e9 f5ed bf3f 0e8e 988b 17c5 bc3f
000005e0: 87ed acfa 1310 c13f 8d30 a256 6381 a13f
000005f0: 1ba1 97f0 33ec 8abf 9c4f 6895 0350 a6bf
00000600: f931 f900 aaea a0bf f0a9 16ab 884f b33f
00000610: ae5e 97a2 4055 b13f be66 607f ee8f b23f
00000620: 1bcb ac15 647b 72bf 17e6 2891 0bba 87bf
00000630: 7381 4aef 8f84 b13f ea8d 6292 9d88 923f
00000640: 7884 1aa5 ec4c a3bf 332f 68e8 7e91 873f
00000650: 3f40 147b 517d 8e3f 7a67 0a85 ec91 963f
00000660: 47d3 6968 fdd8 a63f b01b f0e8 1747 ae3f
00000670: 58bd 7b86 c732 4ebf 351c 6732 d985 6cbf
00000680: 8561 dc46 f23c 783f 48b8 3643 bf64 b43f
00000690: 48e7 bfc7 07bb af3f d459 02c9 b67c a63f
000006a0: 62dc 8896 75ea a43f 99cb 9ed2 646f 38bf
000006b0: cb48 0ee2 281b a6bf f0cd 6863 eabb b03f
000006c0: 585c e675 aef2 a03f 6092 b498 9e40 bc3f
000006d0: 4975 8e25 7fc9 ae3f 69fd 5097 dfe6 b93f
000006e0: ecfa a85f 342e 8dbf b7ed 8b33 93f0 a8bf
000006f0: 2d75 6771 87aa b83f 459b 04c3 2389 c83f
00000700: d590 9fe2 dec8 d23f 7f33 856e 8379 80bf
00000710: d8b2 b072 8781 8c3f c8f7 eb7d 8b4b a4bf
00000720: 94cc d25a eb5d b8bf 516b 8c4b c48f b2bf
00000730: 7ad9 aff0 d6c8 a9bf 7ec8 7896 b450 943f
00000740: c537 fcff e966 bcbf 2506 ad8e 80cf 93bf
00000750: 18a4 95ea 9cf6 943f 3aa9 2bee 6d9c 913f
00000760: d371 a700 d372 b4bf 19c7 cc75 0455 91bf
00000770: e60f 5685 ca88 b4bf 82ce db97 8618 a9bf
00000780: da7e 5767 cf82 a53f db76 e3eb 07be 7c3f
00000790: cc7f 37e5 0cb4 95bf 6508 8d32 ff44 ac3f
000007a0: f642 6a68 af19 a7bf 1d53 8940 3fcc b03f
000007b0: 5416 5039 1e05 b03f aad7 f281 1f22 913f
000007c0: aa49 fc4f 0e9e a13f c242 3180 2005 933f
000007d0: 56d0 84b6 3c11 61bf d187 1434 5cbd 503f
000007e0: 2bd0 a198 b138 bcbf b989 341f a1cd bfbf
000007f0: b685 7fef 647c b9bf 754c a914 2002 b0bf

hydro_met_encoder.layers.1.0.bias f8 [32]
-0.041439360967840067 0.04561571210504777 0.0835008981904305 0.2291905582630948 -0.012606725958027894 -0.11916465296111434 -0.016665658659336415 0.12275790118514182
-0.029797489028407214 0.0030745536350229793 0.03281054188923464 -0.009179534963158802 -0.022618780921382118 0.04478008176496185 0.05311269903191403 0.12916524317452768
-0.046063859638434866 -0.008223172003500898 0.026539852262768497 0.05546259452634437 -0.05874265173444884 0.12128786600079287 0.019157031257212718 0.017404749884010987
0.010567188880815814 -0.013216279338904671 0.09241512003534162 0.17613630377093378 -0.017388246300947707 -0.06258421671049441 0.027165320423308225 0.017725234241841123
00000000: 807e 3f38 8a37 a5bf 9f90 594f f15a a73f
00000010: 481e ea9a 5060 b53f 6e5f 25c0 1d56 cd3f
00000020: 314c 981d 8ed1 89bf 10a3 4e1f 9381 bebf
00000030: d7f1 a16b cd10 91bf ce70 ead2 0f6d bf3f
00000040: cb0b 85a3 3b83 9ebf 30b8 fd69 ce2f 693f
00000050: a6b0 c118 8bcc a03f 368e ac53 b8cc 82bf
00000060: d9b5 54b1 6029 97bf d1ab 6235 6aed a63f
00000070: 2b50 b072 9631 ab3f 3374 9b97 7c88 c03f
00000080: c366 59a5 ae95 a7bf 1269 9876 4fd7 80bf
00000090: 0e7c 0956 432d 9b3f adae 48db 9765 ac3f
000000a0: 54d8 2850 8413 aebf 5702 e0b9 b80c bf3f
000000b0: 09e5 f39a e69d 933f 2403 30fe 8cd2 913f
000000c0: e0e5 3a15 40a4 853f bb7d 48fc 2211 8bbf
000000d0: 432c 356e 84a8 b73f 4fd0 2a68 a28b c63f
000000e0: a019 ca74 39ce 91bf 1071 04ec 8405 b0bf
000000f0: c3c0 36cb 39d1 9b3f 9cd4 8755 9026 923f

hydro_met_encoder.layers.2.0.weight f8 [32, 32, 9]
0.037017265127674163 0.038268485475075456 0.030635876785966114 0.014853176511484581 -0.02500329292384924 -0.06344066691564333 -0.021801401305882994 0.03936542330603947
-0.048272315423273156 0.010418573482286012 -0.03122558572916003 -0.004369091626927183 -0.015266314947651693 -0.03801356683572202 -0.05865549135021167 -0.0325662861315326
-0.002198605856329098 0.004369345440697835 -0.0026907337230289595 0.029915165804590166 0.009315303471276385 -0.06781479620948579 -0.059834848109005724 -0.04085470249072
-0.0591659068299989 0.006853575270923575 -0.01955194370250842 0.03966917091460256 -0.008137578308324404 0.026396997387460056 -0.041970182173492604 0.04207127035767229
-0.04369650434757341 0.027194012014405917 -0.023254101526868503 -0.04688129719441453 0.008021186523142395 -0.062011531715210996 0.01664023851384289 -0.0300708205319537
-0.020476314395007907 -0.016383809586076235 -0.022199100942077603 0.024223271677871167 0.044465309721091376 -0.003873479567482496 -0.024784426294686867 -0.051744659474999954
0.02907387445050032 -0.037546261601061746 -0.06419566203553703 0.024047322348661117 -0.05666984038228491 -0.014546365622452638 -0.03672019413926978 0.005511339894258805
-0.06509134411433068 -0.05452885848989929 -0.07959409495670824 -0.0339118275573542 -0.07508191912057481 0.015602077892741279 0.019847751192739866 0.016702883035676755
0.03024712106841112 -0.04697168726065439 -0.008299580795854583 -0.011819525716372807 -0.0393004029941098 -0.007754125135063014 -0.014505589839727386 -0.060167695317044
-0.001385158134642825 -0.028403723343846148 -0.00918721554579986 -0.008510099846939994 -0.008913523586842905 0.012560669142616903 0.03420900075443652 0.05591270995355871
-0.05052848383869559 0.012107339551910222 0.005072916114686943 0.03188120100347412 0.028009890222245 0.008676221361542828 -0.0027249152628087813 0.005004776341462176
-0.03493639918130294 -0.04185330182051362 -0.06453853668791969 -0.0426521663303014 0.036244733532136 -0.05579303746487122 -0.06138276714660445 0.01521416003346434
0.014433539620616154 0.02580400375329652 -0.051481508782840114 0.01174570096385324 -0.017129083252983086 -0.04458413989244716 0.03034714236855507 -0.021080571648213
-0.03517187390910273 0.0024394541562926153 -0.03011760245074904 0.0077519607594216475 0.02319555319746768 0.011942171150041344 -0.023891474620443453 0.035562671146535656
-0.054062158543001386 -0.036840156223526016 -0.005678839232008987 0.04793936411137671 0.00307572424042777 -0.03622878454349337 -0.007951096128617868 -0.019120244863974435
-0.013371927230031146 -0.052738604254937656 0.02126180602893908 -0.06909428301484824 0.026048254938949134 -0.04066284398018472 -0.04793693440061006 -0.01730832897176947
-0.06314583771356946 -0.04280006887940825 0.012266695038177552 -0.06916761850551939 0.04373922456778442 0.0010626286174151766 0.04179609591543278 -0.025642053240867064
-0.03224170515628995 -0.040915566664911536 -0.004078471610394417 3.997814332601799e-05 0.026052454231428893 -0.054849414813001804 0.02044262640831924 0.0036467736776168297
0.014027373540211349 -0.03512775422100854 -0.06282374507925756 -0.068242973762741 0.011375126127674752 -0.03922580398901994 -0.0450099832492743 -0.03943393749719249
0.005622528601209661 -0.0401661288786843 -0.0025942277946051466 -0.03811837026606792 -0.06504449622550895 -0.07094806709036448 0.012420662436221223 0.011989038440429122
0.015501143873569082 -0.04948030875952294 -0.028642432855879783 -0.04761220542086069 -0.00875165909180677 -0.057155708273904884 -0.06284044021015583 -0.062420406230611666
-0.05190584187311826 -0.04708058457169004 -0.038778061272505736 0.044450179607555367 -0.009808410292246912 0.0501786426542304 -0.0009696596758602172 -0.001249379129023107
0.03478150281568806 -0.05514001103225944 0.018181951034127047 0.04876087244128702 -0.04720967233205753 -0.05594298224051886 -0.033542494412403194 0.038518215213139036
0.04256749644435966 0.017679827366553963 -0.04286435877434315 -0.038469649758865 -0.06497203946162795 -0.008188257213065727 0.0004414629660652707 -0.01169018803695329
0.03274873182370297 0.01975558121746944 -0.06717381611023898 0.03770248554069717 0.036860499214406706 0.044060551746596247 0.031158287049855737 -0.02641026721513011
0.03560725233704002 0.019110243720440675 0.009194628607108242 -0.021753834552137925 -0.003339279233525526 -0.019035375980142495 0.0240236080970018 -0.06146683632824359
0.0038477249320506527 0.031001891570843026 0.03083025872315912 0.023705698281442474 -0.020883805920160356 0.014818145184736198 0.023038292528804502 -0.0014856493158088874
-0.04650606708831112 -0.05689216022701206 0.021740447490854718 0.05026480108477248 -0.01897816289972272 0.0224249133680746 -0.017992703232830105 0.011185404118749222
0.025428151265563987 -0.037166410615826415 0.012858216536202177 -0.008238569519700173 -0.015965768552848328 0.002352065632393484 0.03828602643249689 0.037592273975316184
-0.027470843201856818 0.048455107622012314 -0.05230972796868582 0.0011518906741207588 0.022383772444054886 -0.016584639835430605 -0.020670356690797403 0.013990072709665576
0.04217338085217055 -0.032836616109179984 0.014425021021555753 -0.0337675537421295 -0.06521058739528537 -0.0006890402421200347 0.011344004315551895 -0.06908723791349179
-0.06390311774405372 -0.06322216127339028 -0.0169615166799866 -0.061074824007627974 -0.025746491175302328 -0.05891100253462119 0.020642051943777617 0.021943467345005206
00000000: 87b0 384e edf3 a23f e271 2a4b ed97 a33f
00000010: 5b21 85e3 025f 9f3f 154b de9a 576b 8e3f
00000020: b3d8 9995 769a 99bf 319d a3c5 a53d b0bf
00000030: 5384 7646 1b53 96bf 26a1 626b b427 a43f
00000040: 811e 1720 26b7 a8bf b5e5 0443 5556 853f
00000050: a64f 0596 99f9 9fbf d100 6a1a 53e5 71bf
00000060: 66de 711b f243 8fbf a43b baa4 8376 a3bf
00000070: d4f1 28b2 1708 aebf 6533 c63b 87ac a0bf
00000080: a2c4 fd87 cf02 62bf bf13 5d3c 97e5 713f
00000090: e604 f7aa e00a 66bf b8f9 23cb 14a2 9e3f
000000a0: b571 17de e613 833f e596 e77b 4f5c b1bf
000000b0: 0d20 9457 aca2 aebf 62c0 2b56 e8ea a4bf
000000c0: 91fd be65 fe4a aebf 0f7f 639a 7e12 7c3f
000000d0: 761e 1abb 6c05 94bf 93ad 797f 844f a43f
000000e0: 0286 9f45 6faa 80bf 448a f781 d007 9b3f
000000f0: a443 af9f 1d7d a5bf 0a23 9394 5d8a a53f
00000100: 9ca4 3e62 635f a6bf d2e0 fe40 bfd8 9b3f
00000110: 2b1a 3956 eccf 97bf 58f6 7c4c d300 a8bf
00000120: ab0a 566e 696d 803f 3e26 62b9 f9bf afbf
00000130: c1be db80 230a 913f f097 fe9a e2ca 9ebf
00000140: af3b ad32 bef7 94bf 86a2 6cd9 eac6 90bf
00000150: 2ef3 2f72 5cbb 96bf b862 a23e fccd 983f
00000160: 9a00 1e36 28c4 a63f ccca 0c82 46bb 6fbf
00000170: d30f 8bb1 1661 99bf e024 60a8 467e aabf
00000180: 754c bbaf 8ac5 9d3f 1bc6 537b 4339 a3bf
00000190: eed9 fc7c 206f b0bf 1aec 2c7c dc9f 983f
000001a0: 7a10 394e d403 adbf 5924 fe24 7cca 8dbf
000001b0: 75a3 dc41 fdcc a2bf 1ad0 a509 0f93 763f
000001c0: 8646 398a d3a9 b0bf 1efe cddf 34eb abbf
000001d0: 3235 cb52 4760 b4bf 1de4 9c1c e45c a1bf
000001e0: 27cf 2493 9138 b3bf 8a49 6472 fbf3 8f3f
000001f0: 657d 1609 f852 943f b46f 8c81 8f1a 913f
00000200: a6dd 25ef 19f9 9e3f d3b1 3e49 ac0c a8bf
00000210: 03ab b5e0 5eff 80bf 4998 3fe3 d534 88bf
00000220: e79c 28b3 2e1f a4bf fdb5 d31d cac2 7fbf
00000230: c13c c44f 1bb5 8dbf 9d25 53d7 4cce aebf
00000240: 8d4a d638 c6b1 56bf 0bc4 629b dd15 9dbf
00000250: 57ee 7b32 bfd0 82bf 56f6 3944 be6d 81bf
00000260: eb83 61e2 4041 82bf c9a2 7779 68b9 893f
00000270: aa33 f096 d783 a13f 34cf 5c39 97a0 ac3f
00000280: 3313 3593 dede a9bf 790f 569b bbcb 883f
00000290: e749 ed8c 56c7 743f 3e91 5597 bb52 a03f
000002a0: c559 e0e9 9fae 9c3f 1c66 01b8 d6c4 813f
000002b0: 9c33 05be 8f52 66bf bbb1 5d6b e37f 743f
000002c0: daee d807 2fe3 a1bf 41f2 18c5 cb6d a5bf
000002d0: 0304 68f8 9885 b0bf 3a01 fc36 81d6 a5bf
000002e0: d473 5872 ab8e a23f c522 83ae e790 acbf
000002f0: 3784 dde2 8f6d afbf 8c1c 3dfe 9928 8f3f
00000300: 1aaa 16e5 548f 8d3f 46b3 e760 5d6c 9a3f
00000310: b55e 24c9 c85b aabf 5d17 114c 210e 883f
00000320: 3531 8751 498a 91bf 6346 847d bbd3 a6bf
00000330: 0000 0040 5213 9f3f 4780 3d37 2596 95bf
00000340: a475 5b40 0c02 a2bf a9a5 48fa e7fb 633f
00000350: 8755 3d16 26d7 9ebf 0ac2 101f 85c0 7f3f
00000360: fd3f 9539 93c0 973f 71e4 4214 2375 883f
00000370: 3392 97b8 0177 98bf afc7 103b 4535 a23f
00000380: 3766 c905 09ae abbf d4b3 5184 b6dc a2bf
00000390: a1d4 7dcc b142 77bf d64a 1922 828b a83f
000003a0: d0d9 c5e0 4232 693f 5786 9349 948c a2bf
000003b0: 36d7 b70e aa48 80bf fa74 87e9 4194 93bf
000003c0: d48c 19b1 bd62 8bbf 29f6 05e9 8d00 abbf
000003d0: 7458 31a6 a7c5 953f e2ab e3b5 29b0 b1bf
000003e0: c097 52cc 64ac 9a3f 114f 1da2 c2d1 a4bf
000003f0: eccf 0a9b 308b a8bf bc54 874b 46b9 91bf
00000400: d4b9 db5b 532a b0bf d20b 3500 e4e9 a5bf
00000410: f8dd 26f0 471f 893f 9c64 6c13 f8b4 b1bf
00000420: 8b5e 24d6 fc64 a63f dcc0 36ca fc68 513f
00000430: 9251 1d42 4c66 a53f d589 4910 e941 9abf
00000440: 1a55 6d1a fc81 a0bf 893a 7299 e2f2 a4bf
00000450: 71ed f262 96b4 70bf 6b02 8d8b c6f5 043f
00000460: 843b 9e9b 7ead 9a3f 9635 a7f5 3815 acbf
00000470: 33e9 786f e9ee 943f 6007 cdb5 d6df 6d3f
00000480: 4bf5 d434 62ba 8c3f 0e50 1fd7 43fc a1bf
00000490: 3614 878a 3715 b0bf 6e25 7e1c 5f78 b1bf
000004a0: 3460 a695 d74b 873f 4a94 9592 6715 a4bf
000004b0: 0029 196c 8c0b a7bf 714f ce5f af30 a4bf
000004c0: c987 6807 a607 773f beb9 e1a3 a790 a4bf
000004d0: d893 2871 7d40 65bf 43d3 5643 4084 a3bf
000004e0: 7cc7 1290 c1a6 b0bf 6716 de0b a729 b2bf
000004f0: 4f72 aa17 0170 893f 93d7 1880 b58d 883f
00000500: 158b e64f 10bf 8f3f 9315 d6a7 7b55 a9bf
00000510: 2955 9321 7154 9dbf 7797 5882 a060 a8bf
00000520: 4b2f aecc 63ec 81bf dadc a153 8343 adbf
00000530: fca0 91a3 4f16 b0bf 361e ba46 91f5 afbf
00000540: e9fd a10a 6793 aabf 0c21 0646 f21a a8bf
00000550: e375 efd1 b7da a3bf 3f7a 6e87 2cc2 a63f
00000560: 1196 728b 6e16 84bf aaaf 50da 03b1 a93f
00000570: 2902 4c4c 18c6 4fbf c223 f79f 4678 54bf
00000580: d3be 3292 e1ce a13f 1555 2bc0 4f3b acbf
00000590: cbb4 4614 4a9e 923f 1065 eb60 2ff7 a83f
000005a0: 302f 71bd dd2b a8bf 60d5 53fe 8ea4 acbf
000005b0: ff18 0e59 7b2c a1bf b10c 48d5 a8b8 a33f
000005c0: 23c6 332a 68cb a53f c864 5a21 a91a 923f
000005d0: e21a 3336 51f2 a5bf 3daf 343f 4bb2 a3bf
000005e0: 8d61 a4f0 01a2 b0bf 4be4 8747 01c5 80bf
000005f0: d5d6 6b00 85ee 3c3f ef24 6c7a 06f1 87bf
00000600: a028 5618 71c4 a03f bc52 f89c ce3a 943f
00000610: 684b 579f 4d32 b1bf 291b c07c bd4d a33f
00000620: 90bc 471d 61df a23f aa37 97c9 1a8f a63f
00000630: 5098 833f f5e7 9f3f ccd3 de07 4b0b 9bbf
00000640: 9575 9320 1d3b a23f ff07 31bf a291 933f
00000650: 64c7 5429 a2d4 823f f229 db1f a346 96bf
00000660: 30df 34e3 f95a 6bbf c204 3575 027e 93bf
00000670: 0926 6f0c a599 983f 2304 a3c7 9478 afbf
00000680: f9be e897 4385 6f3f 4bc5 a4b9 f5be 9f3f
00000690: d9d2 c5a3 f791 9f3f 6ffb 637b 4e46 983f
000006a0: fcbb c57d 9062 95bf ed85 a5c7 f958 8e3f
000006b0: 1c1a dea3 5997 973f 8de0 61ce 4357 58bf
000006c0: 2875 6baa a4cf a7bf 42ca 251f f820 adbf
000006d0: 49fe e4bb 2043 963f 2e1c 99d9 4ebc a93f
000006e0: f449 f8f3 026f 93bf 1b45 2076 8ef6 963f
000006f0: 657a cedf ad6c 92bf b481 0f87 5fe8 863f
00000700: a556 5558 d609 9a3f d698 35cc 7907 a3bf
00000710: a320 109c 6855 8a3f d035 3915 62df 80bf
00000720: d4f2 2897 5459 90bf 7d7c 039f a344 633f
00000730: 3fbd d7de 399a a33f 72cd 9c66 4b3f a33f
00000740: ec02 9514 5121 9cbf 7e14 1f9d 1bcf a83f
00000750: 2fbd c635 57c8 aabf 32d7 8731 61df 523f
00000760: e4eb 6e8a c5eb 963f ca21 d656 90fb 90bf
00000770: 9b3c ef27 9c2a 95bf 04ac 0dc6 d3a6 8c3f
00000780: aa2c 0bd7 bf97 a53f 60b8 9900 f6cf a0bf
00000790: 08e9 408c dd8a 8d3f 740b fa15 fb49 a1bf
000007a0: 2638 371c a4b1 b0bf 84b8 1ba7 1694 46bf
000007b0: 68ec 537c 863b 873f a7cf 6883 b3af b1bf
000007c0: d4b9 d268 f45b b0bf de38 0ddb 532f b0bf
000007d0: 8772 b91d 5c5e 91bf ff84 7107 3345 afbf
000007e0: 55b5 56c6 495d 9abf cb83 853a 9529 aebf
000007f0: d35b 15a8 3023 953f 8639 6e2a 5978 963f

hydro_met_encoder.layers.2.0.bias f8 [32]
0.027612322340494908 -0.11103961931593198 -0.031111644585069483 -0.0035720100404639616 0.019640868649642967 -0.0962585317250502 0.045150512147383595 0.007766388778843614
0.005230714681868876 0.08131188075609729 0.01926186723204679 -0.002869128143408025 0.009551219892164528 0.013085565249601307 0.16789373820306278 0.05276391346923033
0.1304336606040293 0.18557047903221124 -0.0442885636687258 0.05354983599320133 0.03507556594975733 0.12314411193395333 0.12000425251105588 0.09185338719706818
-0.008894203225734823 -0.11304740001392662 -0.0008471817939002743 -0.07929937456622152 -0.011057971464719067 0.05340323136985625 0.12751235221406715 0.08720976102360285
00000000: b917 ad95 6746 9c3f 10b0 85ad 176d bcbf
00000010: 8f12 1220 bbdb 9fbf 56ba c049 0c43 6dbf
00000020: 3b9d 0f62 bc1c 943f 7256 b82d 66a4 b8bf
00000030: fa2d 24ca f71d a73f 80ae 021d a6cf 7f3f
00000040: 0db2 e447 cd6c 753f 1faa 9ffc dad0 b43f
00000050: 7940 4907 62b9 933f 2b35 6871 ff80 67bf
00000060: eb0a 9708 978f 833f 61aa 5fd6 9acc 8a3f
00000070: 0986 64c1 8a7d c53f 5ac5 8425 df03 ab3f
00000080: 61c2 4bd9 0cb2 c03f 78f0 4501 c6c0 c73f
00000090: 0086 1699 fdac a6bf 960b 9854 e26a ab3f
000000a0: 0c2a 49b1 6cf5 a13f ee87 735d 5f86 bf3f
000000b0: 2379 ea43 99b8 be3f a2c9 091e b483 b73f
000000c0: 68fc d3bf 1f37 82bf 3528 f5a5 acf0 bcbf
000000d0: c0e2 9d0c adc2 4bbf caec 5abc f64c b4bf
000000e0: 2f97 68ce 8fa5 86bf 20f0 7718 ab57 ab3f
000000f0: c237 4c23 5352 c03f 7d04 7dff 6053 b63f
