models/E16-S8-1/encoder.ckpt (torch, 211963 bytes, 14 tensors)

hydro_met_encoder.layers.0.0.weight f8 [32, 3, 9]
00000000: 7c56 03e8 5c69 c23f 3d1e 3a3d 5291 c53f
00000010: 9b4f ef23 1b14 cc3f c2c5 995a ef80 cd3f
00000020: 90e4 3f8a 082f 953f 1358 4601 f18a d03f
00000030: a1fc 52d3 1b7d c63f a622 973f 464c cc3f
00000040: d803 0069 44b8 c03f 3848 8324 2400 adbf
00000050: 549b 83da 7345 96bf 9432 5cdf 4c01 b7bf
00000060: fc83 1b0d 1b8d acbf f157 4448 d5f0 93bf
00000070: 3ed0 9e83 932e 8cbf 79eb b446 2737 bbbf
00000080: 016d 6bd6 ffe3 ac3f 7418 0bbf 98a2 7dbf
00000090: 611b 1096 9154 c63f 3251 6155 a4e0 b03f
000000a0: b65c 79fe 58ef b9bf 5d77 e449 5212 c1bf
000000b0: 904d c826 c596 6f3f 0716 3455 6163 a4bf
000000c0: 4e54 e7db 7cbb afbf eb2d a352 2124 743f
000000d0: 652d 11a9 ddc1 c03f 362d 4a66 638a bf3f
000000e0: b63c 8110 6f49 c3bf b9da a498 dfab c63f
000000f0: 62cd eca0 64a6 c53f 04ee 89ec 0e17 dc3f
00000100: 1aea d4f5 6749 d53f 3279 7b82 491d c4bf
00000110: 2a11 6bb7 f17e cabf aba4 0821 07b2 b5bf
00000120: 5994 ff28 258c c03f c24d 3372 fe36 c5bf
00000130: a11e bd05 4b31 c93f ffd9 93d2 0709 b6bf
00000140: e361 0262 d904 c93f f139 d540 1746 c1bf
00000150: 628d 7885 c1cb a33f 73ec 4216 1634 b53f
00000160: 19ea 2c7e f97a a93f a2b2 8809 f637 b03f
00000170: 9438 2133 859d bebf de1e ba42 314e b03f
00000180: fc4b 1363 4c02 8cbf 68e9 4be3 71e3 af3f
00000190: 96bf 6f3d 503c c0bf 54ea d729 280a a5bf
000001a0: 734b 7269 1a6a bd3f 257c bcf7 5836 9ebf
000001b0: a144 3c56 47f2 d23f 68ea 1c21 e9b4 d23f
000001c0: fcb7 fc9f 9365 b43f 7948 062f 7dcd 9fbf
000001d0: 82d4 ec39 783e d13f 7f4b 61b4 d8b3 d13f
000001e0: bc59 bb41 6c54 a53f a0ee 87fe e163 cd3f
000001f0: d2b0 b72f b2c7 cd3f 7af5 3e9c dd6b c33f
00000200: e3d2 d5b0 0e07 d1bf ba57 499c 2029 b7bf
00000210: b3bb 7906 612e aa3f cbba f983 b8e0 bb3f
00000220: c9d3 0834 d01b b7bf 50f9 5f45 0c60 bbbf
00000230: 3d16 e709 802b b53f be59 e89e aa8c c1bf
00000240: 74ac 0341 7457 b73f 1ccb 343d 7729 753f
00000250: 3513 474e 4d85 9b3f 6af3 e3ac 72fd 963f
00000260: acc4 72bb df1a a93f 4920 eb62 b7cd a83f
00000270: 9d33 6905 1e34 cabf 3f0d 2641 4feb bc3f
00000280: ed5b 1748 b8d9 bbbf 7207 bc17 fb27 d2bf
00000290: e3c6 547a 0b92 a53f dfa4 e4af 4a6c c0bf
000002a0: 8202 cc14 52b5 db3f 183f 38c9 98b6 bbbf
000002b0: 733d f2ff db03 d3bf dfc5 c0b2 a9c0 bd3f
000002c0: aa09 d318 b569 b2bf f547 b8fc 399a ce3f
000002d0: 0756 e408 4c28 b8bf bb0d 822b ab5f bcbf
000002e0: 9e00 0671 120a b8bf e8dd 195a a9a2 a23f
000002f0: 1a70 0e01 a310 bfbf 7211 18fb 419c c0bf
00000300: ee60 2f9b dd0f c3bf 53d1 b1c2 08a1 d0bf
00000310: 3ec1 619f d7d4 b2bf 5f3f e507 e385 aabf
00000320: e18b 5123 b389 c53f 46a4 c4e0 4e82 a6bf
00000330: 8398 c50d ee80 b83f 7336 cdfc 8cea b03f
00000340: e3e5 2258 6dca c4bf c61b da17 452e c2bf
00000350: 5666 bbe0 f759 c53f 6325 84b5 5e8c 9e3f
00000360: 52d0 3e1e 5ac3 c13f 9e8d 2043 5d1e a83f
00000370: ab69 b543 72c1 82bf 450c 9896 178d b63f
00000380: 9252 6c1f 2829 c23f 13f7 a5dd 3ae2 babf
00000390: 4965 267d 35ce 923f 643e 37c8 807d c53f
000003a0: 4540 b9a2 a0eb c53f 06e7 0151 2ebc 823f
000003b0: df05 b393 8f08 d4bf 23f9 f87e 2dbe c6bf
000003c0: d732 a51c 6785 dabf 93e5 cb2d dff4 d9bf
000003d0: bc4c 2500 37c0 aebf d696 23e0 b587 d4bf
000003e0: f21b e3fd 1662 cbbf c27b 498a c91a d0bf
000003f0: a5db 2470 09e3 d6bf e3b4 5c85 40bc c0bf
00000400: 0bbb 15fb 3d92 b03f b49a 62d9 5494 c13f
00000410: 035d e150 d23f ccbf 4512 4757 ffdc a9bf
00000420: 7b76 9171 e43d ba3f 55f2 f1df a5b8 c13f
00000430: 358a 153c f451 ba3f d340 9328 7aa3 bc3f
00000440: 38a3 afb4 76d8 c73f 5c5a e7c6 10b6 bb3f
00000450: c4b1 fc59 14a5 b8bf 1c56 3d02 37c8 c6bf
00000460: 90f6 0a31 1c07 c9bf 23fc 0fb1 3be4 ae3f
00000470: 5dc7 b34d b534 a63f f482 8d0a 4a95 cb3f
00000480: fcf0 55f9 db9b d33f 8a8d f4c1 d12a be3f
00000490: 77a5 df90 45b2 c63f e3ef ac83 212a ba3f
000004a0: 30cc 725b da31 c53f ca53 afc3 27e4 b03f
000004b0: 746a 4ca3 914b 893f e0d0 1f5d 25b1 d73f
000004c0: 6e3b 50ae c617 9f3f a912 d52c 8737 b03f
000004d0: 1dce 842f b1de b1bf 5e50 99bd 3b3a c0bf
000004e0: 47f7 1655 3c9d abbf c803 b999 9a34 b7bf
000004f0: e219 303f f099 b23f 47a4 2eb7 5b6a a3bf
00000500: 1fdb 798d e703 acbf d8f4 6869 bb30 b53f
00000510: 521d c238 88c4 ae3f f070 7407 5ac0 c13f
00000520: 9e96 4932 4c71 b0bf a86b 22f2 d52f c03f
00000530: fa43 9539 31c3 a83f 7939 cf69 a797 b2bf
00000540: 6d25 7116 20fb abbf 8c0a d8bd 4a2b b93f
00000550: 1a25 3cd1 460a acbf 9fe5 6d29 a103 c33f
00000560: 44b3 395f 5b8d c83f 627d 3641 4bbe d23f
00000570: d5e2 9e66 e234 d23f fc96 8967 13b4 d93f
00000580: ca56 0dd9 b2af c23f 4089 4853 50a8 a63f
00000590: 1690 d47e a6ff b03f 15bd f9cb da43 d33f
000005a0: 21d0 4133 be73 8bbf 41c4 5297 db54 a53f
000005b0: 6a24 f0ba 1b5c aebf 20dd a8b0 3536 a03f
000005c0: 2576 4840 d05f babf b7a9 1107 faf7 c33f
000005d0: f112 35a9 5917 aabf dd6b 288a 483f a9bf
000005e0: efff 2ccc 0cb0 a43f c903 0b63 323a b8bf
000005f0: 7385 e580 ab7e b63f 12d1 fc84 94bf ae3f
00000600: dd8c 4ed6 287d a63f 6ef2 cdaa 0f43 a5bf
00000610: 3c26 41ad a3f8 a53f 9c69 912a 1953 c5bf
00000620: aa41 2acc 9a47 6dbf d35f 9ff6 0a91 af3f
00000630: 3141 6d05 68ce da3f a22b be63 795b c8bf
00000640: 0811 6c3c aa7b c5bf 2d43 4fbc 4fe9 d3bf
00000650: c364 7c70 eb0d b5bf 7255 1d71 59fd cabf
00000660: 6aec 75d4 05d4 c83f 0e47 648f 7612 b53f
00000670: 0cf4 ced3 8121 cdbf 5014 e820 be68 9bbf
00000680: e71c 0238 ab2a 81bf 22ff 1008 cac6 9b3f
00000690: f798 4ea4 b58c 91bf b33e 3a27 ec2e a03f
000006a0: 4697 8b40 8c87 c0bf bfbe 86ab bf3b c03f
000006b0: 5fec 4a8a 9f70 b73f b382 0528 57a9 aa3f
000006c0: b0a8 cfa7 17ae c73f f0e5 edb3 b0ec cfbf
000006d0: 3606 ea1b dda2 9bbf e344 30b2 670b d53f
000006e0: b4b3 c8b6 133f 813f a724 3e5a 50a3 d93f
000006f0: c961 8000 ef77 cdbf 68bf f47c 3403 b5bf
00000700: 606e e856 071b db3f 6ea5 b72d 82b4 ae3f
00000710: a343 7f85 d55e b0bf 0034 3a24 d1ad 843f
00000720: 70a5 6b9e 7655 c03f ebef 4450 5e46 a43f
00000730: 5c22 f51c 3b72 b73f 687a 185d cea8 893f
00000740: 3368 c984 c366 bd3f 3de5 0b41 8714 c43f
00000750: 11d5 5bec 5024 acbf ddd8 8f03 368a aa3f
00000760: 2484 009b 1e23 bdbf b786 8d81 b0dc b93f
00000770: c957 b9bb 0a22 c03f 886c a813 fbb2 b8bf
00000780: 59eb cb2c 0946 c1bf bbb3 f2d9 25cb 843f
00000790: 7712 9124 f8df b83f 6649 869c 6559 9dbf
000007a0: d6ab 6082 81a8 c6bf 8fef 35e1 f80a bcbf
000007b0: ad6b 4200 6d07 cebf d832 70a7 da3d c8bf
000007c0: 4348 0ab3 89db ccbf 94d2 28aa f588 c63f
000007d0: d28b 5373 53f0 c93f cbff 6b63 c882 a3bf
000007e0: d493 c475 0546 9e3f 3209 474f 6491 b73f
000007f0: e82c 4d11 2ddc a83f 4b36 640c 705e bb3f
0.1438404209972538 0.16849735250092293 0.21936358694676703 0.23049728320942903 0.020687230527958678 0.2584803116272962 0.17569301432192666 0.22107771019934325
0.13062338950115193 -0.05664170213425773 -0.021749315464059407 -0.08986359074715217 -0.05576405081752253 -0.019473392997575393 -0.013760712103113911 -0.10631032444227441
0.05642699711253308 -0.007235142388429695 0.17445583178797633 0.06592776379085732 -0.10130840504403946 -0.13337162597684485 0.0038560724845042096 -0.0398207108028537
-0.0619772928654717 0.004917268912503196 0.13091631655911865 0.12320538756664665 -0.15067852311992674 0.17712016061132888 0.16914041383425188 0.43890736674777053
0.33260535246850653 -0.1571437728043264 -0.20699902969330114 -0.08474773937691064 0.12927689077256124 -0.1657407815570036 0.19681680469715437 -0.0860752953629813
0.19546048436747218 -0.1349515024725885 0.03866390947612321 0.0828260235165759 0.04976634659984231 0.06335389836085395 -0.11959106920514478 0.06369312171056715
-0.013676258824864 0.06228214168182228 -0.1268406200392717 -0.041093115909423134 0.11490025591255719 -0.029504194374677568 0.29603751584461163 0.29229191049277015
0.07967493682801313 -0.03105731582179103 0.26943784386396186 0.2766019593738562 0.041659720443635945 0.22961068084975 0.232656739520627 0.1517292988700481
-0.2660557486445169 -0.0904713040884805 0.05113509372755889 0.1088977167325808 -0.09026814718602262 -0.10693432515833945 0.08269500962986683 -0.13710530051385023
0.09117819392456444 0.005166497972185959 0.026875694182098193 0.02245120220412692 0.049033156997560695 0.048444491219527715 -0.20471549286085358 0.11296553936522445
-0.10879089126625248 -0.28369023626156953 0.0421298586683301 -0.1283048018315531 0.43294193297337114 -0.10825495636549609 -0.2971105575060939 0.11622105230414757
-0.07192546707214001 0.23908161964260413 -0.0943648835858185 -0.11083478748519486 -0.09390368708955285 0.03639725899568785 -0.12134760642806022 -0.12976860771608362
-0.14892168118854648 -0.2598287488283592 -0.07356021538885657 -0.05180272551899522 0.1682647631124317 -0.04396292203666312 0.0957173141119672 0.06607896015085561
-0.1624275856354834 -0.14203704514167564 0.16680811379665056 0.029832343891972878 0.13877417065453074 0.047106661266549596 -0.009158032122901746 0.08809039522752567
0.1418810037072445 -0.10501449500403863 0.018364749682949797 0.1678925492874327 0.17125328011980137 0.009147989127302757 -0.31302251266251163 -0.17767876338798158
-0.41439225957291853 -0.40557078811942765 -0.06006023289469328 -0.32078310860229686 -0.21393096348603496 -0.25163496498674587 -0.35760723067817884 -0.13074499618361476
0.06473147754671175 0.1373392163706818 -0.22069767903551715 -0.050514201549536376 0.10250690243398168 0.13844750819034127 0.10281301943681671 0.11186946383100187
0.1862934477096816 0.10824684959457315 -0.09626891323995951 -0.17798507317881807 -0.19552948374432733 0.06033503090292693 0.04337088178171087 0.21549344554207261
0.3063878950995471 0.11784087167011684 0.1773154218092647 0.10220536675200224 0.16558389153723985 0.065981374048831 0.01235116748425933 0.37018713087242183
0.030364136113401434 0.06334729046381916 -0.06980426225782606 -0.12677714116819322 -0.05393398798649556 -0.09064642193790384 0.07266141455338684 -0.03792082415686387
-0.05471728899003935 0.08277484248624789 0.06009317105150082 0.13868260730749382 -0.06422878482552583 0.12645983050319143 0.0483641989509422 -0.07262655575980216
-0.05465030931425017 0.09831683287488086 -0.05476590446603265 0.14854826472200686 0.19181387090375257 0.2928646218151326 0.2844778062968037 0.40161595450477683
0.14598689649817792 0.04425288216249834 0.06640091511195609 0.30101652068602053 -0.013404355944864279 0.0416630384655794 -0.059296480722033376 0.03166358739366104
-0.10302449769411533 0.15600514741102042 -0.0509593981792359 -0.049310938706376574 0.04040565483455782 -0.09463801305811538 0.08787032982720237 0.060055390580972326
0.043923641357901146 -0.041527261352688125 0.042912592791776366 -0.1665984590388917 -0.0035741828335817587 0.06165346394089934 0.41884804277380555 -0.1902915703797961
-0.16783645582484774 -0.311115201850998 -0.08224364753950213 -0.2108566095654783 0.19397042154364225 0.08231297493719245 -0.22758505670745455 -0.026766749151665714
-0.008382165571914913 0.027125508062680777 -0.017138326791290983 0.03160799006320527 -0.1291365924036489 0.12682338595685924 0.09156224371229048 0.05207321513694776
0.18500037855057405 -0.24941071305856566 -0.02698846323847289 0.32882110978341766 0.008421091094612844 0.4005928880001854 -0.23022258305060309 -0.08208015490231235
0.42352469908812473 0.05997092063973751 -0.06394705304343389 0.010097154539176145 0.12760813460708276 0.03959936838006669 0.09158677536937304 0.012529003349354542
0.11484930030692979 0.15687647510621075 -0.05496456990469246 0.0518357161853815 -0.11381713184574999 0.10102370417510086 0.12603887716494303 -0.09648102979592654
-0.1349498242123797 0.010153098787066264 0.0971675004266873 -0.02866133468484957 -0.17701739183516335 -0.10954242227847842 -0.23460161698025442 -0.18938763786027013
-0.22544976465411723 0.1760546761376146 0.20264666682405036 -0.038107168327769246 0.029563985169392584 0.09206225333676768 0.04855480991553823 0.10690975477719993

hydro_met_encoder.layers.0.0.bias f8 [32]
00000000: 983d 9eba f2c0 b3bf ad8f 5a87 d74e ac3f
00000010: 2f71 bbef 3044 adbf fbd8 e0ef 2b43 b7bf
00000020: d2c7 c8d5 f712 a63f 5b79 ee9b 5999 9e3f
00000030: 4334 52a1 f564 d2bf c166 429b 82dc c4bf
00000040: 5862 b0f8 0cfb 95bf 8fde 5e33 2291 99bf
00000050: 9ced 71ed 114e 98bf 9c48 169d 4385 c1bf
00000060: 6a19 f289 b66e c2bf 3352 8c09 364c 473f
00000070: f091 9c10 1660 cebf 6942 f5a3 17e8 c4bf
00000080: dca1 5749 7424 cdbf 0f50 b444 d291 c2bf
00000090: be96 51a3 5284 a53f 3a8a efff 916f ca3f
000000a0: 6b0a e3ef d7b6 b83f 01ae 1c44 c74d c4bf
000000b0: 9c47 9b77 2135 87bf 1dc9 7673 7970 aa3f
000000c0: 54de 3112 e839 c13f 9c3b faed 5d25 b73f
000000d0: 3604 c550 734c c23f 53f9 a73b 43f9 98bf
000000e0: 76cb 78d6 1496 b43f 2710 5f67 822e 853f
000000f0: d771 32d3 710a afbf 22bd c3e4 0b20 9dbf
-0.07716290527445435 0.05528901603000178 -0.057160882248100335 -0.09086870771793436 0.04311346516296023 0.02988185896139704 -0.28741207841887134 -0.16297943669342455
-0.02146549480321122 -0.02496770323315772 -0.023735313527578947 -0.1368793980623807 -0.14400369392042062 0.0007109893659583199 -0.23730731783975 -0.16333289628757378
-0.22767499524276402 -0.14507511477188514 0.042025167881360556 0.20652985569820875 0.09653997046101785 -0.15862360788138122 -0.011331807577707846 0.05163936171028836
0.13457966698091417 0.09041392383572461 0.14295808261707216 -0.024388361469385455 0.08041506038789045 0.010342615871088935 -0.0606265611943148 -0.02844256004112567

hydro_met_encoder.layers.1.0.weight f8 [32, 32, 9]
00000000: 3f26 e936 454a 90bf b026 a45b 524a ab3f
00000010: 86cf 8927 7ef7 913f 0257 ea6f e7dd 763f
00000020: f540 001c 5d10 8cbf 1e7b 3414 08d6 a23f
00000030: dab0 5335 b2c0 88bf 81e0 8418 c4c6 abbf
00000040: d008 988b 6800 aa3f 2497 5c0a 0509 b1bf
00000050: b40b 6075 0db0 b0bf 1ea2 74ee 5758 9bbf
00000060: ae6d d2a8 b720 b7bf 04a6 c0fc a89a 66bf
00000070: 6dfd 1550 4821 9abf 9ce6 1213 5faa 873f
00000080: 5d0a dae4 1a3c 84bf 809a d753 bfa3 893f
00000090: e0b8 7a4d 2ef9 a13f 028a 4536 37e6 933f
000000a0: 242b 40bf dc86 983f 401d 51f5 2d7d 82bf
000000b0: dafb 3fe4 7c20 a2bf 6b61 a129 c4f5 8abf
000000c0: 943d bf62 74bb 93bf 6f72 ae3d 2423 98bf
000000d0: 46ff ef00 10e5 b3bf 29e1 7af8 5f1c 97bf
000000e0: 6648 f598 ab20 bdbf e624 b0d9 18b8 ccbf
000000f0: 2442 7786 bd8a cbbf 988c 8185 0a51 a0bf
00000100: 37a5 30a8 1303 abbf 8874 9249 70ad a9bf
00000110: 6f72 3c9b 58ba b8bf 02db 6e96 329f b1bf
00000120: dddf e487 8796 913f bf74 ca80 e632 9b3f
00000130: f7ca 2d1f ecfd a8bf 1ca0 92a0 2cba 7bbf
00000140: 7843 1e6b ed9f bcbf ea69 5a5a 06bb d0bf
00000150: 4650 7003 8642 bfbf 8b1d 1568 6ab8 b8bf
00000160: c06d 9efc 56c2 c4bf 5c3c d5fc 10a5 a03f
00000170: ac57 af31 d28c aa3f e4a6 77dd 57d7 ab3f
00000180: fc7b c149 7d26 b43f 6a26 b54c 646a b03f
00000190: 7592 eab2 4597 98bf 145a c64e 340a 92bf
000001a0: 711d 1967 c9e6 b2bf dc37 f710 14b3 853f
000001b0: 87fb 04c8 5c8b cf3f c031 a5b1 dc3e c03f
000001c0: 8bac 302e 381e cb3f 53af 944f 66e4 cf3f
000001d0: 671e bc5d 2b76 c43f d2b8 1a3d 1759 c33f
000001e0: e797 14ba 21ec c43f ad3e a029 4b4a c33f
000001f0: 1fb6 aa01 e334 c03f e12d 62f8 3d3b b13f
00000200: f378 41ab 72a7 a23f 6d89 31c1 2188 afbf
00000210: 4ad9 edf9 f5e1 72bf 2918 8b1e dd82 93bf
00000220: 53cd 6f3d 0737 ba3f ec99 9f76 4ea5 b43f
00000230: 48bc e6f7 fb94 b53f 78d4 2168 7314 aa3f
00000240: 9ca7 5de2 2d64 ae3f b877 7f72 7433 743f
00000250: 214a a00d 1a52 973f d7a5 9f9f 9051 a0bf
00000260: 30c9 3501 08ad 7a3f 465d 3523 019c 28bf
00000270: 1cf6 ff79 b1c2 8ebf 0df5 ea13 ef8b b0bf
00000280: f2b9 78bb 7172 8abf 34e6 2c53 2d01 a5bf
00000290: 7396 d1bb 6f72 9f3f c3f6 849b 302a a53f
000002a0: 6550 c506 5f0b 7ebf 353b a867 d128 973f
000002b0: b258 fb0a dc3f 89bf db41 ec48 2d18 9cbf
000002c0: 0686 499d f09e b5bf 2c98 eba0 79a3 84bf
000002d0: e42b f7b1 6ab9 b1bf 7239 50f1 22bc b1bf
000002e0: 1d38 bf38 c0d9 c3bf 0da2 0d5f 4f82 c9bf
000002f0: 9098 e106 efe8 c0bf 30a3 9f0f df93 a0bf
00000300: 7978 9d6f d2cf 84bf 7741 5437 a77a c0bf
00000310: 4a74 7b37 8f38 bdbf 7c90 3006 7e3d c33f
00000320: 20fe 2b67 2501 b13f f44e ec11 b817 a23f
00000330: 7dd3 0890 c67d b9bf 42b2 ad88 c901 c33f
00000340: 18c4 ffa8 9504 b83f 826e 7844 3965 b43f
00000350: fb9f e9f2 d4ab af3f 3c1f a51b d543 a53f
00000360: 2da9 54c6 531b 35bf 8c67 53f7 f147 a63f
00000370: ab54 420c 1e06 a83f e0b4 a6c6 94a9 98bf
00000380: f31e 8373 d082 ac3f c33a 0e60 d824 a13f
00000390: 96ce f7e0 bef2 b73f f6dc cb8a a9b9 a13f
000003a0: b5bd 8590 fe5b b53f dfca a19f 559a 673f
000003b0: 5d20 80c8 19e0 acbf 89ba ee68 0967 91bf
000003c0: 0ac4 d1bb 7649 803f 81b0 2ca7 252d a5bf
000003d0: 8a48 c24c ed39 a03f b9f3 a5c8 469d a0bf
000003e0: af99 e314 c092 abbf c775 1942 1829 7bbf
000003f0: 6b3e b817 4d03 a7bf 560a 95d1 567a d7bf
00000400: eccf 2064 c3dc cabf 4468 ea71 7b3b bebf
00000410: 5ece 1886 1e2a 85bf c17c f03a 40da a83f
00000420: 2a5e fe17 6dfb 96bf 353a 0ab9 b1c3 a73f
00000430: 9079 c8b9 0143 933f 3f5b 4f7e 4b0f b2bf
00000440: 98f5 0b47 a45e 9bbf ad4a 328c 3e25 703f
00000450: 1482 e0ce 76fa 6b3f abdc 4d2a 5cd0 853f
00000460: 8658 1705 4847 a1bf cbda 764b 16af 9dbf
00000470: 2ae8 5e17 8c1b b9bf 2e81 e2eb d561 a7bf
00000480: c476 5385 cd2c 9f3f ef2d 5531 041c b73f
00000490: 1f43 1c43 4213 b9bf 32ca d7c8 6ad0 ac3f
000004a0: 6951 b5d2 2260 8dbf b142 1131 f0e7 a93f
000004b0: c88c a736 f6c6 a23f cdb1 3d7c 7abf a03f
000004c0: d291 3c9d 77a7 59bf b0ed 57f6 ebd6 a23f
000004d0: c08c bbc0 633c b03f 2efa 30ba 5ce7 b2bf
000004e0: e741 a474 f739 ba3f e69f 67b9 9e44 b03f
000004f0: 3071 ebe1 7d88 b33f b2a1 626c 6aad 743f
00000500: 0879 f305 6dce b03f 7a2b be82 fc38 aabf
00000510: d413 ba0c 6632 88bf 9259 a2ce 82b1 b03f
00000520: f3f0 dd1c cf21 9c3f 2401 ee27 9be0 b63f
00000530: 65dc 8f2d 9bfc 87bf 6559 fed1 4049 b53f
00000540: e488 c5d0 2f05 9b3f 5ea1 c9ee bbf6 ae3f
00000550: eb54 c982 e141 7e3f ee7c 92a4 d8f7 ccbf
00000560: 5c65 f02e 247e d3bf 8a29 1bce 1976 cdbf
00000570: d39a 1e6a d945 c3bf f2ad ac43 d4cd b9bf
00000580: b7e1 3b40 2301 cebf f80a afe3 b737 c6bf
00000590: efed 9e47 4728 c6bf 5517 b075 9a41 b5bf
000005a0: 1a62 98e1 a199 8ebf ded6 16df c8a4 bb3f
000005b0: 6749 7ad4 38d1 91bf 843b 940d f888 b23f
000005c0: 7887 6ae8 1c79 c53f eabb 4a72 1b0c c03f
000005d0: 1fdb 4549 6ba3 b73f 1369 a4e1 784a ba3f
000005e0: 7452 4106 f267 b53f e0c7 2ed3 c13b a4bf
000005f0: fb87 62d1 7f34 bcbf 2f98 60d3 6bba c0bf
00000600: e488 35cb 6ee0 a5bf 84bf d9ff 9ad5 b13f
00000610: f0b0 e43e 3d14 a13f 526d 7648 1901 a4bf
00000620: 1128 afdc 7be9 b2bf 0915 9033 8d58 87bf
00000630: 5ee0 ada4 2f45 af3f ca88 3586 a65a 843f
00000640: dbfd 0c50 e238 a9bf d2ef c8cb 3c21 993f
00000650: c30c 92d9 7500 773f 8846 aafb 7a42 953f
00000660: 2596 a323 02e8 913f da52 83ba 83f4 af3f
00000670: bbef a362 576b 8ebf d504 3034 5ce7 a53f
00000680: 180a 16cd afde a2bf 2796 c461 e622 8abf
00000690: 354f 1f77 3f51 803f e365 bf17 3e37 a3bf
000006a0: bcf2 c271 adcd b53f 5dbc 393e 9fc7 9e3f
000006b0: 5d98 df22 cdca 9dbf 93f9 4f17 9a84 6dbf
000006c0: 30db a9a8 6f13 79bf afb8 cc0a b11e bc3f
000006d0: 2f37 6121 7855 c03f 7db2 bfc0 0c55 c73f
000006e0: 6995 6e9e 89e3 963f 2cb6 42d8 89cc b3bf
000006f0: 7cb9 4a4c 7322 a9bf cd80 76ac 8478 7d3f
00000700: e69a 5595 9e8e c53f f321 02a3 4424 833f
00000710: 6871 b211 1862 b23f 5f30 2e99 bc3c 8c3f
00000720: 593c 1783 8469 a8bf acdf ac10 ab13 b1bf
00000730: 9c36 0dbc 377b b8bf 61fb 45dc a8e0 a9bf
00000740: 57a4 cccf e660 c2bf 7796 834a c1c0 aebf
00000750: 4b6b 9352 8364 bc3f 95ea 4346 3756 a73f
00000760: 7418 118c a2f9 b9bf 4b2b 56dd 77e5 bbbf
00000770: 539e d4bb 83ab cbbf 7947 2aae 12da b3bf
00000780: 7f0d 97f1 c745 86bf 63c3 86a5 d6c6 c0bf
00000790: e81e 9e6b e053 cabf 418f e899 3ed6 b83f
000007a0: fab8 e449 47ce 79bf 5a1c 830a 4aed b73f
000007b0: 4693 b548 f725 c23f 8f30 4e7b b33e b13f
000007c0: d947 6c37 b733 b13f 99a9 fd8a ce42 903f
000007d0: 1bce f893 7e18 a6bf 2303 fe8c 13e5 a33f
000007e0: 71ff 7b81 7ba4 90bf 326d e2dc 78a5 b4bf
000007f0: 3246 1f2d 84b7 b8bf 4166 25e7 5215 b4bf
-0.01590831897400435 0.053301404654189866 0.017545672572353087 0.005582717944567996 -0.013703086297056613 0.0367891812004386 -0.012086288692863812 -0.05425083922676866
0.050784365692395306 -0.06654387953730329 -0.06518634906392046 -0.026704191140341497 -0.09034297820692558 -0.0027592945607650705 -0.02551758755498439 0.011555426377856386
-0.009880266293525947 0.01251935457817166 0.035104224164898445 0.01943289059398446 0.023951958821309863 -0.00902782349488851 -0.03540411268476591 -0.013164074440439951
-0.019269770171204195 -0.023571554436431826 -0.07771396658790505 -0.022569179097190393 -0.11377975925759784 -0.22436819676685288 -0.2151715189525173 -0.03186829452240508
-0.052757849007614536 -0.05015135667893228 -0.09659341611809123 -0.0688354127185953 0.01717578665667917 0.026561357126969606 -0.04881227379418889 -0.006769346547265822
-0.11181529870215268 -0.26141508887817955 -0.12210881790116543 -0.09656395951343748 -0.16218077978997592 0.03250935636844396 0.05185562950616371 0.054377313408463995
0.07871230173758187 0.06412340996498647 -0.024014557881530913 -0.017617051418335875 -0.07383402602237311 0.010595471160652119 0.2464405037553343 0.12691839860998577
0.21185972457292154 0.24915770421773206 0.15985624386688643 0.15115633472073015 0.16345616899451373 0.15070476086156273 0.12661397534741156 0.0673102122693119
0.036433776288264406 -0.061585478623572644 -0.004610024304261559 -0.019053893079011317 0.10240216493530356 0.08064737697677743 0.0843045692661103 0.05093727728027714
0.05935805691008442 0.0049318836899753735 0.02277413089911751 -0.03187229107409067 0.006512671726669958 -0.0001877547634687537 -0.015019785438194204 -0.0646352218272634
-0.01291359761588937 -0.041024605181928214 0.030709977949661082 0.04133750818662698 -0.007335063168586319 0.022616645766954952 -0.0123288336612116 -0.027435977531298988
-0.08445648040790141 -0.010077429030797523 -0.06923548550473374 -0.06927698508682115 -0.15508272906157652 -0.1992892469527451 -0.132108572349527 -0.03237816873281074
-0.010162014037345056 -0.12874307824723605 -0.11414427856966927 0.15031409551841424 0.06642373818248659 0.03533721178805918 -0.09957543388811803 0.14849204229121155
0.09381995559648748 0.07966955110208043 0.06185784783593814 0.041533145546564815 -0.0003220634010455855 0.04351764816392664 0.04692167186400672 -0.024084400772768855
0.05568553361950803 0.03348423168710248 0.09354775421507563 0.0346196157387854 0.0834349730337099 0.002881209596176645 -0.05639725277438921 -0.016994616536687466
0.007952621084969653 -0.04136006990151576 0.031691947574601434 -0.032449924462504005 -0.05385399107926802 -0.006630987890813462 -0.044947060723754394 -0.36684198824892655
-0.20986215962477617 -0.11809512644904979 -0.010334242312729443 0.04854012221789495 -0.022443489636854753 0.04641490348614178 0.018810297931958042 -0.07054588159313101
-0.026728216968867707 0.00394176895783242 0.0034153290244065635 0.010651321450252679 -0.03374695837162371 -0.02898821673962963 -0.09807658739637817 -0.04566830162480283
0.03044434667832864 0.09027124599850088 -0.09795011652410011 0.05627759648986731 -0.014343521170908162 0.05059767340629174 0.03667420785111514 0.03271086470235538
-0.0015658062083697588 0.036795972653603015 0.0634214730776419 -0.07384280725180112 0.10244700048156795 0.06354705835803962 0.07630144849412512 0.0050481946147233215
0.06564980883874594 -0.05121602149946276 -0.011814877761262034 0.06520860237865225 0.027472721230410845 0.08936471676679908 -0.011712276771488736 0.0831490051917619
0.026386973493011903 0.06047618188751146 0.007387047674076923 -0.22631366763832922 -0.3045740564717414 -0.23016665042662182 -0.15056913072222375 -0.10079695369920907
-0.23440971981450584 -0.1735753881203761 -0.17310420033560045 -0.08303227780569718 -0.014941467949982235 0.10798316427721086 -0.017399681061371377 0.07240248042601932
0.16775857304042652 0.12536948280964505 0.09233732737434906 0.1026988554844233 0.0836173310538671 -0.03951841071047091 -0.11017607557235458 -0.13068912335546787
-0.042727911287117754 0.06966561075546279 0.0333575381540373 -0.03907088288834849 -0.0738751806049154 -0.011399367462227266 0.0610747231029911 0.009938527079331645
-0.04926211573774327 0.02454085344128016 0.005615673400032497 0.020761415110035958 0.017486604142410784 0.062412373082826725 -0.014853174875035671 0.04278076302581161
-0.03685521486751869 -0.012761878832473773 0.00796746809275071 -0.03753084220779692 0.08516963984852571 0.030058372662491773 -0.029093938115601115 -0.0036032685843558425
-0.006122051398611814 0.10984331620849973 0.12760831479902765 0.18228301440776198 0.022352361960334664 -0.07733975915717711 -0.049090960562682334 0.007195013290953689
0.16841490070074555 0.009346519684428655 0.07180929596001351 0.013787721085258107 -0.04768003559330997 -0.06670636326896212 -0.0956301530943286 -0.05054214180835604
-0.1435822024007247 -0.06006435427279382 0.11090870634090526 0.045579650237376125 -0.10146537704085451 -0.10897015718198337 -0.2161717097417176 -0.07754627945021565
-0.010875284252398696 -0.13106806833595916 -0.20568471197861204 0.09701911218195126 -0.0063002381050820625 0.09346449619907685 0.14178362894304025 0.06736299286257207
0.06719536879634748 0.01587984774907056 -0.04315562778756662 0.03885708900543807 -0.01625245073137144 -0.08064990418136089 -0.09655023671737054 -0.07845037596907735

hydro_met_encoder.layers.1.0.bias f8 [32]
00000000: e827 364b ae0c afbf 34bc da79 f580 5dbf
00000010: 29e0 7ebc dfdf 65bf 9dad 2748 01d3 bd3f
00000020: 5207 e6ec 001c acbf d51b 9202 441b 9f3f
00000030: 6f1c e183 2f22 7f3f 21d6 616c a08c c43f
00000040: 7fc9 110f c723 c0bf a5bc 816d b4ca a6bf
00000050: aa48 cfda 6bb4 9a3f f8b3 37be d574 b33f
00000060: 8f59 76e6 9468 9a3f 4b05 d16b b056 bc3f
00000070: 8f37 1e08 ce7a c73f 5fb6 fda0 6655 a33f
00000080: 3344 4ade 38a2 63bf 11e1 fdfa 5769 a7bf
00000090: 8a10 5fd9 4c17 a0bf 4d56 0056 a733 b1bf
000000a0: c05d c538 5188 9ebf dbf8 190b 287a a73f
000000b0: 5e06 f343 a033 babf 8b44 9f7d 241b c53f
000000c0: 6883 e335 cb5b bc3f a616 6d78 e95c 96bf
000000d0: 3ac1 6af5 c316 a1bf 08ef 42c4 4120 a23f
000000e0: b87f 52d4 7a54 83bf 1c78 aca6 6d81 953f
000000f0: 9d80 b413 4a1b a03f 8948 87f8 5a4b 9fbf
-0.06064362209424684 -0.0018007657267096302 -0.002670227990133629 0.11650093089672571 -0.054901150625495845 0.030377447754769655 0.007600961309498818 0.1605415848932106
-0.12609184490026945 -0.04451526486160987 0.02607887766846121 0.07600150960907104 0.025789572302153337 0.11069777137983754 0.1834352054251522 0.03776093211386632
-0.0023966894826306317 -0.045725583447110314 -0.03142776635607543 -0.06719442224160695 -0.029816884126686594 0.04585385451808729 -0.10235025080603452 0.16489082464116608
0.11077566209452316 -0.021838806128718823 -0.03337681170285341 0.03540235062379621 -0.00943847618538017 0.021001542375522417 0.03145820131817454 -0.030560895365689098

hydro_met_encoder.layers.2.0.weight f8 [32, 32, 9]
00000000: e11f e2ef ac4b ab3f 9a9d c027 9f05 b73f
00000010: 4487 09df 8b9e a83f 3b49 a22b 0eed b93f
00000020: 67b0 12b6 f08a b33f a3e2 ae3c 998f b03f
00000030: b64a 6f0e babf b83f 1b6b 96d1 caf7 bd3f
00000040: 484c 4440 68ae 973f 91d3 40ef eb0f b93f
00000050: 28ed 456a 2c7f 9c3f 769a 0108 1f75 ae3f
00000060: 702a 44a9 3a7d a23f 8813 a2e1 de0e 96bf
00000070: 4ff4 a163 af34 abbf 7120 ab47 c074 9bbf
00000080: 1b11 f760 5671 a93f 763a f0e2 fd36 b43f
00000090: 027d 745c f86d a0bf a8de 5c82 d95f c3bf
000000a0: c358 7b5d d1ee bdbf f4d6 b708 cb56 c9bf
000000b0: 4c1c 5226 8789 c6bf 65ec 1fb5 beb1 b63f
000000c0: bf28 077e 4033 a6bf 5310 8f49 fb12 8e3f
000000d0: 579c aec3 d086 b3bf 9f1d bbde d980 c73f
000000e0: ae25 efc4 54c2 ba3f 1a2f 222b 6cde a23f
000000f0: 22f6 5267 c6ac 9c3f eb53 e1f6 cc18 d83f
00000100: ad20 f848 8201 a5bf 72ae 5405 99db c5bf
00000110: bdf0 e8bc 3e0c b8bf 5ce1 1a8a 1727 acbf
00000120: 6644 b9f0 8e5c cf3f 3190 12a5 4569 b2bf
00000130: 3eed b3d1 b84b d0bf 2e29 ff64 6822 d5bf
00000140: 255e d793 0ef3 a43f 7a2c 5da1 fe65 b33f
00000150: 5e0e 7e91 7f65 abbf 5229 172c 859b 8fbf
00000160: b23b 790f bbec a93f 1bbb 3840 b32b 97bf
00000170: 2131 d094 e73e c6bf 1d2d f023 85ba d0bf
00000180: 87ba 0730 d465 cabf 9ef3 5263 e3a7 c5bf
00000190: 878f a90d 10ed 9f3f 7a71 5605 599a c23f
000001a0: 67e1 66a7 b0ab b1bf db60 e5fa 4ed7 b63f
000001b0: b9db c033 b0db aebf 5471 2019 975e c3bf
000001c0: 6683 818d 1a8f d3bf e58c c04d e501 d8bf
000001d0: 8040 4760 95d6 b5bf 4762 2822 0470 943f
000001e0: 9d1e 5bf9 1cec bc3f c6ab 6e0d cb2d b53f
000001f0: a5a9 5a96 f2a8 c43f a3d3 9c28 898c c33f
00000200: 7d3e c8ad f703 c23f e0ac 3be7 4d6c bc3f
00000210: 9dca f4c5 b87e c63f cb82 4bae b1e5 bf3f
00000220: ff3b 4550 8361 b13f 2a84 386f 7619 a83f
00000230: 6a64 3ed7 beb4 b1bf 7ff0 b6d8 60eb c6bf
00000240: d852 5d23 a1b1 c83f 9e7d 5972 94b3 b83f
00000250: c898 436b 458e bb3f d72f c27e 6411 983f
00000260: 2147 92a5 633f 783f f0e0 481a 6b1b a43f
00000270: 8bda 0e25 8484 b6bf 9443 200b d4ab c6bf
00000280: 7844 ed41 9cd8 d3bf 74d7 ce12 ed1d c83f
00000290: 9ec0 08ca aacb b73f 2bda 312d e570 8dbf
000002a0: 4fe3 ece3 ce3d c8bf 163a 2fb8 98d4 afbf
000002b0: 63b6 50ac 6a04 82bf 198a 9834 1b66 ac3f
000002c0: 6d61 359b 2af5 90bf 2755 82f1 e9ec ab3f
000002d0: 5aa3 df15 1034 a2bf e8f6 daf2 c317 cdbf
000002e0: 6407 858a 54f5 c4bf 1845 34ad 7d38 dabf
000002f0: e110 0bf9 8baa c0bf 7741 b4f6 316d af3f
00000300: cee5 a2e4 32f9 af3f 9ece 50b9 ee5d a93f
00000310: 3f9a 0aa1 ab9f 8c3f 3415 5577 ddcc c73f
00000320: 7d60 74a5 9f88 b53f bb18 444f ea09 9f3f
00000330: 1603 4266 6ac0 973f 69cf 8f54 fd04 bd3f
00000340: b9e1 072b ff36 8abf 0d6b 076f 115e 9abf
00000350: 97d7 e90d 8a68 adbf 76f2 4090 4470 82bf
00000360: 7a61 3482 b6c1 cb3f 3c2a edc1 221c a43f
00000370: a616 7a1d 3223 d0bf 9b04 01b5 fe9a b7bf
00000380: d5e6 5301 007c bfbf 8d7c 6309 67db b9bf
00000390: 6c7b 3bfa d60c a9bf 87e3 73da b802 903f
000003a0: 4c5f e39a 24f6 afbf 5eb5 a708 6f40 a33f
000003b0: fa08 c740 6cb9 b8bf 4d52 a423 9686 c2bf
000003c0: 5f0b f3f7 4932 c3bf fe3a ef12 2aeb cdbf
000003d0: 8c98 bb1e 898a 9e3f 01bc c1b3 35fe b7bf
000003e0: e6b6 f53c 8567 853f 610e 66eb 8e54 a5bf
000003f0: 33fb 375f ce91 b0bf 0eb9 2292 e64e d2bf
00000400: 6f3d 9bc8 17ec c0bf f074 3dff 43fe c2bf
00000410: 925b 002e 0a0a 8ebf fce1 fa1b bdd6 a53f
00000420: c1a0 1a51 73fa cc3f bb05 9098 37ed d13f
00000430: 8207 ee87 fd23 d63f bf9b 2fd5 2ac6 d83f
00000440: 7d9a 5c17 12b3 cc3f d7fa 3415 dd12 d63f
00000450: 9300 f9b2 5754 d63f 5a67 b68f 6950 d43f
00000460: d7ad a3bb 693b c43f f4ea d73f cfe5 bd3f
00000470: e764 ce67 7f9f d13f a03c 17f0 e3a6 d73f
00000480: cfc0 b5a4 12d5 a73f f598 771c 7458 cdbf
00000490: a84b 6190 6723 d7bf f2ff 5b53 330d d4bf
000004a0: 4090 bbbe 5a1b b1bf 181e 43f4 1395 b7bf
000004b0: 5c2b 48c6 c179 873f 5f96 299b 6f01 b0bf
000004c0: 601f 936a e0b9 873f 9d0c 9c20 1080 bfbf
000004d0: 6542 48cb c2f8 b2bf 0a60 3d41 1495 c0bf
000004e0: 20ab 1af2 d0b6 c2bf a414 13d8 e052 adbf
000004f0: ef26 51bd f266 bb3f be6f 47ee ece4 b23f
00000500: 93d7 9236 6c29 a63f 0766 f7b1 f556 b1bf
00000510: 9040 8461 954b c0bf db2a 7ea1 378b c6bf
00000520: 0a45 4d8e 3e86 bfbf a445 95d4 12e2 c3bf
00000530: fc43 52e5 0dac c3bf d66d a3e6 6586 cbbf
00000540: f6ab 07b0 c68e c3bf 209f ffae c812 bdbf
00000550: f39f d8ce 0630 b6bf ee1e d4ef f077 d13f
00000560: b3f4 7f15 8d1e ce3f f785 7eb0 9e72 d33f
00000570: 53d7 947c 7ad1 d33f ab7b de38 2135 ca3f
00000580: 4c89 6912 7079 d13f 8ce5 2146 6120 b33f
00000590: d255 498e 83e7 ce3f fa73 d101 c704 d53f
000005a0: 1dc6 4df5 5c67 b93f 6c23 bbc6 bd9d ad3f
000005b0: 9dba 6727 0105 963f 96d5 121e 1932 c13f
000005c0: d2a5 c6e8 2965 b63f aa79 9ffb 7dfc ab3f
000005d0: 100c fdb1 8a99 843f e795 7934 ab92 ac3f
000005e0: 2253 08fb 59e1 b4bf daeb 5a59 527f c5bf
000005f0: dc0a 829a b557 cdbf 83dc 55d5 b592 c7bf
00000600: 96e1 e622 91ce acbf fd8a 12bf ac40 993f
00000610: c08f 01fb 37f2 c6bf 01bf 53b2 d466 863f
00000620: 63c5 cbb7 41c0 a33f bc31 cce9 d1d2 a13f
00000630: 8966 035f ac07 a7bf 5c34 bb7a 44a7 b2bf
00000640: e06c 89d4 cc4c 94bf dda3 b212 5726 71bf
00000650: 6311 dd47 64d3 ac3f a6f4 d606 68f5 b53f
00000660: 3d5a 4109 58ce a33f aee9 8cf5 04d1 a5bf
00000670: 62a2 d74f 536f a4bf 0959 c240 5882 b43f
00000680: b0c7 20cb 4609 b03f b41c ba76 198b acbf
00000690: a930 c458 8a0a b4bf 8bc5 52b4 6a39 a3bf
000006a0: 64e3 ca43 3575 b5bf 6117 1463 031a 823f
000006b0: 6a02 8b07 0bfd b03f 9242 b4ad 16ad b13f
000006c0: af29 abe8 9e6e d1bf 1447 f129 e506 e4bf
000006d0: c81a aeb6 2794 d2bf 64a2 55d8 b466 c23f
000006e0: cd7d 202d 87f6 903f ec83 d9cc 165f c43f
000006f0: 93ce 47c5 0f8a b5bf 8bc9 2416 68ea b13f
00000700: 29ae e260 8fea c03f f67a fd5a 0ed9 a2bf
00000710: c5f8 97ca fee0 8a3f eec6 6165 ddab 80bf
00000720: 46de d302 1456 90bf f7f9 cd52 f8c3 473f
00000730: 1d44 c201 91c2 a23f 98b5 69c3 7666 a23f
00000740: c72d 58de 4631 9cbf ef3d b397 47c9 a83f
00000750: ca4e f759 9441 a03f c2ff ecb4 3e5a acbf
00000760: 2e51 7e00 b32d b13f 2d03 ef78 4be5 a33f
00000770: f7f1 80bc 2ed3 a43f b30f 13e7 64fa b13f
00000780: eba5 65f4 e5b0 a63f 83a9 ff84 4bad b1bf
00000790: 91a7 39bf 1e39 493f a6a3 bcda 8110 b43f
000007a0: 115d c987 eb75 abbf c1c8 2905 ae8c cbbf
000007b0: dcf9 c1be ae4c d3bf 336b 2b38 cc3c bcbf
000007c0: 1c51 139f 5474 cabf e8d6 802e d54f c1bf
000007d0: 553a 2e38 e294 9c3f fe2d de27 4332 af3f
000007e0: b844 6c4e dc9b 9abf 1da4 fc23 3e28 aebf
000007f0: bb9c 2da1 df1e 953f a26b c32b 8674 963f
0.05331173351538588 0.08992953033940979 0.04808461282369916 0.10127342763215534 0.07633881039754585 0.06469114047548401 0.09667551853571407 0.11706225983509137
0.02312624828580237 0.09789919463294285 0.027828878389738382 0.05948731396420197 0.03611167255629233 -0.021541101953079372 -0.05313633052080801 -0.026812557577415356
0.04969282086998047 0.07896410742271506 -0.03208900574304076 -0.15136259904260396 -0.11692532093306611 -0.1979612152642215 -0.17607201930170147 0.0886496727179505
-0.043359771141312724 0.014684642011964543 -0.0762758710612713 0.1836197221329998 0.10452775772059539 0.03685319925815929 0.028002834373856207 0.37651371106522785
-0.04102713719118021 -0.17076409111301732 -0.09393684494074513 -0.05498574791767183 0.2450121570023242 -0.07191882400599138 -0.2546217010382924 -0.3302250849052538
0.0409168773145974 0.0757750648455601 -0.05350874568014484 -0.015433349998507016 0.050634236945021796 -0.02262764052846498 -0.17379469648620563 -0.26138428220356663
-0.20623257012580984 -0.1691860423069586 0.031177759965785447 0.14533531914356584 -0.06902603232345471 0.08922284722700928 -0.060269838635967195 -0.15132416464701726
-0.3056093580144562 -0.37511570542319667 -0.0853055343679916 0.01995855768663748 0.11297780120650676 0.08272999837815495 0.16140587178717883 0.15272631152188607
0.14074607835253863 0.11102759261455075 0.175742241533574 0.12459860329864651 0.06789417943694785 0.04706926448512434 -0.06916420702909112 -0.17905817586677483
0.1929208204916424 0.09649017135369894 0.1076396357417223 0.023503847347953268 0.005919827695054087 0.03927168556077898 -0.08795953659760351 -0.17711878340972176
-0.31009584844748117 0.1884132711253944 0.0929514640090496 -0.014375486795171607 -0.1893862355152813 -0.06216885803552345 -0.008797486671109305 0.05546650902785561
-0.016560235713173044 0.05454188416585231 -0.03555345789920379 -0.227287763196663 -0.16373688472418302 -0.4096979323813499 -0.1302046743422869 0.06137996803784323
0.0624481109711713 0.04954477321771587 0.013976422168821332 0.18593948675894867 0.08411596097391967 0.030311261260998573 0.023194944850277364 0.11335738481994685
-0.012800210476584849 -0.025749466325446103 -0.05743819637147778 -0.009003196384690808 0.21684914930007065 0.03927715890184344 -0.252148178850215 -0.09220878523867031
-0.12298584015288878 -0.10100406626905763 -0.04892608456224576 0.015635383923811055 -0.06242479696964995 0.03760096531537259 -0.09657932836038077 -0.14473225345922672
-0.1499721966448204 -0.23373914646659694 0.029825346470624 -0.09372268332093371 0.010451355860563404 -0.041660753474414454 -0.06472482514071203 -0.2860657145601103
-0.132204983665797 -0.1483845707215674 -0.01466758683095096 0.04265395132592073 0.22639314136654856 0.2801035871380823 0.3459466769637559 0.38709517306272895
0.22421480313024125 0.34490134306899506 0.348897862222665 0.3174079802935147 0.15806314146116904 0.11678786572148764 0.2753599656803786 0.369561180556909
0.046547491651723776 -0.2292618884086505 -0.3615359220468073 -0.31330569401325115 -0.06682364613112757 -0.09211849893028334 0.011462701667388657 -0.06252191103120584
0.01158500027885595 -0.12304783626682299 -0.07410829031892659 -0.12954953370604044 -0.14620410748951773 -0.05727293622616372 0.10703961488720969 0.0738056260810813
0.04328478017980255 -0.06773315043337656 -0.12730662595322828 -0.17612357507126472 -0.12314215635457884 -0.15533671741517907 -0.15368817994433914 -0.2150390030063664
-0.1527946815034224 -0.11356786987709855 -0.08667032766300035 0.27294562741052075 0.23530734586521404 0.30387084232106026 0.30966055074838045 0.20474639202890663
0.2730369739348546 0.07471282922951711 0.24144024322110497 0.3284165876155495 0.09923344601499946 0.05784409571567192 0.02150346568117333 0.13434137314258682
0.08748113568312668 0.05466073700494019 0.010058482701088806 0.05580649390757824 -0.08156359080051037 -0.1679480491928576 -0.22923917812666772 -0.18416474262969382
-0.05626348067329727 0.02466077724660475 -0.1792669273009988 0.010938321773636074 0.038576177297623436 0.03481155375456832 -0.04498041782217139 -0.07286479946488228
-0.019824219200342053 -0.004186954621368391 0.05630029084435042 0.08577585379585403 0.03868365395526439 -0.042610316252154376 -0.03991184568059648 0.08011390286478472
0.0626415487211307 -0.05574874471954541 -0.07828583399913448 -0.037547430526852464 -0.0838197031506645 0.00883867879975825 0.06636113104014787 0.06904737225364446
-0.2723767540125221 -0.6258416957082056 -0.29029267158368244 0.14375935137947515 0.01656542981083735 0.1591518879168058 -0.08413790289324145 0.06998301067941363
0.13215820532546843 -0.036812256438443144 0.01312445693747256 -0.0081403061451257 -0.015953362152656213 0.0007252657429573363 0.03664067408056602 0.03593798766528805
-0.02753172618944946 0.048410641925894164 0.031750331861670825 -0.05537601431433316 0.06710356485411204 0.038858755600364205 0.040673695097641564 0.0702269615313174
0.04431837662088952 -0.06905052182233899 0.0007697487003046501 0.07837688055282274 -0.05363403351355534 -0.21523070575819328 -0.3015553343647335 -0.11030269976928934
-0.20667512671810406 -0.13524880190532618 0.02791169612788232 0.06093034612339564 -0.025985185896449464 -0.05890077771466216 0.020625585758719405 0.02192887918577536

hydro_met_encoder.layers.2.0.bias f8 [32]
00000000: 4cd0 d888 a912 b83f 657b 90dc dc0c b7bf
00000010: 8705 5300 bf53 b5bf ebf3 826a 2cc1 cb3f
00000020: 14ba 9760 a8f8 a03f d343 c099 a9b2 c8bf
00000030: 2c53 0d89 b1be adbf 4ea4 3bea 1dfd b4bf
00000040: 6208 42d0 3ad6 c73f eb55 2235 12f6 b43f
00000050: 88cc c131 de8e 933f 9e08 cb69 21f1 b6bf
00000060: 899a 91cc d9d4 a5bf cf69 47ce dee8 753f
00000070: af37 5aa5 523e 8c3f 77a6 7511 82b0 c93f
00000080: b6b0 8231 d309 ab3f 5bed 8e1f e69a c63f
00000090: 31f7 c0b4 0a0e be3f 66ba 91ce df16 a63f
000000a0: 7096 bbbb c3e8 b93f 1074 a64b cfbd 973f
000000b0: fcfe ee51 2e70 b93f 1227 bb6b 2db0 8b3f
000000c0: 16df c963 8c6c 853f 25f1 dff7 ea28 a53f
000000d0: 421a 7830 bc79 a23f ccde de33 b415 c13f
000000e0: e197 916f 7a6d 6abf d4b5 08d9 16c2 c33f
000000f0: e2e9 997c a842 c13f 3870 726b 9177 a53f
0.09403476325025045 -0.09004001984474781 -0.0833091140548473 0.21683268738516345 0.03314710787877942 -0.19295234687208893 -0.05809550092695867 -0.08198725670412552
0.18622527283520457 0.08187974736423313 0.01909968546574395 -0.08961685974921571 -0.04263954755952166 0.0053490355826064226 0.013790746375231892 0.20069909908788805
0.05280933360458688 0.1766021398633296 0.1174017611783398 0.04314326664540573 0.10120795567817154 0.023185004226991934 0.09936799526530743 0.01351962552088851
0.010460945887856659 0.04132780338111023 0.03608501521744191 0.1334748509668685 -0.003226031429721652 0.15436063382496334 0.13484674533886137 0.04192785679444494
